nn-model-v2-2.pth (torch, 271375 bytes, 7 tensors)

conv1.weight f4 [32, 1, 5, 5]
0	0xbd8ff486	-0.07029061
1	0xbd666674	-0.05625005
2	0xbe4f1073	-0.20221119
3	0x3dee6c4a	0.11641748
4	0xbe4d7005	-0.20062263
5	0xbd6d7b71	-0.05797905
6	0x3d83ef67	0.06442147
7	0xbe6b8db0	-0.23003268
8	0xbd85a8f3	-0.06526365
9	0xbe1a9f90	-0.15099931
10	0x3e06aa35	0.13150866
11	0xbe7c92fe	-0.24665448
12	0x3d3e69cc	0.046487615
13	0x3d22b11a	0.03971968
14	0xbd8cee88	-0.06881434
15	0xbe3b7651	-0.18306853
16	0xbe29d834	-0.16586381
17	0xbc3dd9bb	-0.0115875555
18	0xbe63734a	-0.22211948
19	0x3e0da22e	0.13831398
20	0xbe1f37ec	-0.15548676
21	0xbd040b98	-0.03223762
22	0xbd36bdcc	-0.0446146
23	0xbdbebc11	-0.093132146
24	0xbd8dabc0	-0.06917524
25	0xbe70c895	-0.23514016
26	0xbe15c889	-0.1462728
27	0xbe7df159	-0.24799098
28	0xbd9d29c0	-0.07673979
29	0xbd9d0391	-0.07666696
30	0x3e00a760	0.12563848
31	0x3e12b6e3	0.14327578
32	0xbda485dc	-0.08033344
33	0xbdcaa536	-0.09894793
34	0xbe3d11fb	-0.1846389
35	0xbc3734dc	-0.011182036
36	0xbe057342	-0.13032249
37	0xbe4874c9	-0.195758
38	0x3c36975d	0.011144486
39	0x3df9f3e6	0.12204723
40	0xbdc35a45	-0.09538702
41	0x3db25e4f	0.08709394
42	0x3cbcef70	0.023063391
43	0xbe4d341d	-0.20039411
44	0xbe247640	-0.16060734
45	0xbd9bcd29	-0.076074906
46	0xbddcdc3c	-0.10784194
47	0xbe7107a8	-0.23538077
48	0x3d83aead	0.06429801
49	0x3b005311	0.0019580761
50	0x3d024078	0.031799763
51	0x3d7bb640	0.061453104
52	0x3db8b67e	0.090191826
53	0xbd2b2df2	-0.041791864
54	0xbd25cdfa	-0.040479638
55	0xbd19d447	-0.03755596
56	0xbd3aa0e8	-0.04556361
57	0x3a72a147	0.00092555996
58	0xbe28619b	-0.16443484
59	0x3e0803f9	0.13282765
60	0xbe6ff032	-0.23431471
61	0xbcb5f820	-0.022213042
62	0x3df97d99	0.12182159
63	0xbe17ca5a	-0.14823285
64	0x3e3a8f98	0.18218839
65	0x3ca10600	0.019656181
66	0x3e2f7f6d	0.17138453
67	0x3b97e7c7	0.0046357843
68	0xbd7f0fcb	-0.06227092
69	0x3dfcee77	0.12350171
70	0xbd02128e	-0.031755976
71	0x3dde5f12	0.10857977
72	0xbd99175d	-0.07475159
73	0x3e121252	0.14264801
74	0xbdc1e579	-0.094675966
75	0xbe6757f9	-0.22592153
76	0x3c7801d0	0.015137151
77	0xbe774598	-0.24147642
78	0xbd1659ed	-0.036706854
79	0x3cc238d9	0.023708748
80	0x3d033d67	0.03204098
81	0xbdfd8363	-0.12378576
82	0xbe2eba67	-0.17063294
83	0xbc867d9a	-0.016417313
84	0xbd0756e0	-0.033041835
85	0xbdee302c	-0.11630282
86	0xbdb79bb5	-0.08965246
87	0x3de1901b	0.11013814
88	0xbd5d2dcb	-0.05399875
89	0x3d7a78c3	0.061150324
90	0xbe650c9b	-0.2236809
91	0x3deeeb45	0.11665968
92	0xbd61774e	-0.05504542
93	0x3d694177	0.056947198
94	0xbd531a17	-0.051538553
95	0x3de18fb6	0.11013739
96	0xbe7222a8	-0.23646033
97	0x3e0356dc	0.12826103
98	0xbe3a5c9e	-0.18199393
99	0x3bf028ca	0.007329081
100	0x3d1bba3a	0.038019396
101	0xbdd4ba5d	-0.103871085
102	0xbe02ed35	-0.127858
103	0xbe2b76a4	-0.16744477
104	0xbde02f77	-0.10946553
105	0xbe18e699	-0.14931716
106	0xbde21a92	-0.11040224
107	0x3ba4445d	0.0050130324
108	0x3cb114db	0.02161639
109	0x3be4e72a	0.0069855647
110	0xbc2db25d	-0.010601607
111	0x3b77d6f8	0.003781734
112	0xbdde208a	-0.1084605
113	0xbe2e7087	-0.17035113
114	0x3def157e	0.11674021
115	0xbe5baef6	-0.21453461
116	0x3e010519	0.12599601
117	0xbded89d0	-0.11598551
118	0xbddacd9f	-0.1068375
119	0xbdb2a368	-0.087225735
120	0xbe0ab1ce	-0.1354439
121	0xbe74a45b	-0.23890822
122	0x3e15de90	0.14635682
123	0xbe324327	-0.17408429
124	0xbdb17bdc	-0.086662024
125	0x3e952518	0.29129863
126	0xbe0d50e9	-0.13800396
127	0x3c81f404	0.015863426
128	0xbe6ab8a4	-0.22921997
129	0x3c955259	0.018227743
130	0x3dc664c2	0.09687187
131	0x3dfb1f6a	0.12261851
132	0x3dcb4ed5	0.099271454
133	0x3d8e6b31	0.06954039
134	0x3e805b18	0.250695
135	0xbdd4553d	-0.103678204
136	0x3c909457	0.017648859
137	0x3bdfe0f6	0.0068322374
138	0xbe8cbe6a	-0.27489024
139	0x3e02ea6f	0.12784742
140	0xbd8f0c99	-0.06984825
141	0xbd70bd3e	-0.058774225
142	0xbd97edee	-0.07418428
143	0x3d897184	0.067111045
144	0xbd8aabc8	-0.06771046
145	0xbd68903b	-0.056778174
146	0x3deae8b7	0.11470168
147	0xbda81d05	-0.0820866
148	0xbe1bd273	-0.15216999
149	0x3e033fc7	0.12817298
150	0x3dba5398	0.090979755
151	0xbe26b219	-0.16278876
152	0xbdaa53f0	-0.08316791
153	0x3d3093f3	0.043109845
154	0x3c128844	0.008943621
155	0x3e4a1e52	0.19738129
156	0x3de7b03f	0.11312913
157	0xbe7ae6ab	-0.24502055
158	0x3e894efb	0.2681807
159	0xbd98203b	-0.074280225
160	0xbd9edefb	-0.07757374
161	0xbde67708	-0.11253172
162	0xbe4cf478	-0.20015132
163	0x3dc572ff	0.096410744
164	0x3af7e6cb	0.0018913386
165	0x3e50f3e0	0.20405531
166	0xbb76e65e	-0.003767393
167	0xbe9d7053	-0.3074976
168	0x3e6c7678	0.23092067
169	0x3db6d10f	0.089265935
170	0x3d9c8a77	0.076435976
171	0x3d1f8fb8	0.03895542
172	0xbeb24d83	-0.34824762
173	0x3e8ba262	0.27272326
174	0xbde99406	-0.11405186
175	0xbe173144	-0.14764887
176	0xbcdd4e4f	-0.02701488
177	0xbda2d34c	-0.07950458
178	0xbe696175	-0.22791083
179	0xbe5614c2	-0.20906356
180	0xbe3b012c	-0.18262166
181	0xbd7f062d	-0.06226175
182	0xbe1eb7c7	-0.15499793
183	0x3d88e25a	0.06683798
184	0xbbb4a142	-0.0055123875
185	0x3d4a2f86	0.049361728
186	0x3db586fa	0.08863635
187	0xbcdd42b9	-0.027009355
188	0xbe5c9536	-0.21541294
189	0xbe0493a0	-0.1294694
190	0xbe1f96eb	-0.15584914
191	0xbe055d31	-0.13023831
192	0x3d4638cf	0.04839402
193	0xbde22d65	-0.110438146
194	0x3df42b56	0.11922328
195	0x3ce945c8	0.028475657
196	0xbe19bc20	-0.1501317
197	0x3db8424e	0.089970216
198	0xbdda5828	-0.10661346
199	0xbc8058f6	-0.01566742
200	0x3d23ef15	0.04002293
201	0xbdd034ca	-0.10166319
202	0x3e13a66a	0.1441895
203	0xbd4cb1d3	-0.049974274
204	0x3dffc83f	0.12489366
205	0x3cffb867	0.03121586
206	0x3e247c95	0.1606315
207	0xbda3c551	-0.079966195
208	0xbeebf35d	-0.4608411
209	0x3e2350dd	0.15948816
210	0xbd8f206a	-0.06988604
211	0x3b84e578	0.004055675
212	0xbc8eb7ea	-0.017421681
213	0xbe93bcf7	-0.28855106
214	0x3e6f353c	0.23360151
215	0xbbd9e16b	-0.0066491864
216	0x3e1ceca8	0.15324652
217	0x3d4945d9	0.049138878
218	0xbd5f47ed	-0.054511953
219	0x3e0b2b04	0.13590628
220	0x3d1f1d61	0.038846377
221	0xbda6451b	-0.081186496
222	0x3d5d7239	0.05406401
223	0xbe481f5e	-0.19543216
224	0x3daccda4	0.0843766
225	0xbe060d57	-0.13091026
226	0x3ddf5145	0.10904173
227	0x3ea612db	0.3243626
228	0x3e3590b9	0.17730989
229	0x3e2db36f	0.1696298
230	0xbe01b8b9	-0.12668122
231	0xbe923070	-0.2855258
232	0xbe80e8d2	-0.25177628
233	0xbe57d79e	-0.21078345
234	0x3e230df2	0.15923288
235	0xbee365ce	-0.44413608
236	0xbeac48c8	-0.33649278
237	0xbf0ce076	-0.5503
238	0xbe9ecdbe	-0.31016344
239	0x3d9fb005	0.07797245
240	0xbed16892	-0.40900093
241	0xbe8094f4	-0.25113642
242	0xbe028b91	-0.12748553
243	0x3de5e911	0.112260945
244	0xbd4a5eab	-0.04940669
245	0xbe237233	-0.15961532
246	0x3da90f81	0.0825491
247	0x3dc95c3d	0.09832046
248	0xbc50cfd3	-0.012744862
249	0xbb4d0f02	-0.0031289463
250	0x3d6d4be2	0.057933696
251	0xbd4bb551	-0.049733464
252	0x3e17a390	0.14808488
253	0xbe65b85e	-0.22433612
254	0xbde4e88a	-0.11177166
255	0x3dac794c	0.08421573

conv1.bias f4 [32]
0	0x3d870d38	0.06594318
1	0x3dcd705a	0.10031195
2	0xbfbab522	-1.4586527
3	0x3dd39b0f	0.103323095
4	0xbdfcf153	-0.123507164
5	0xbe4c986b	-0.19980018
6	0xbead7c09	-0.33883694
7	0xbdc29c46	-0.09502463
8	0xbf751a3c	-0.95743155
9	0xbe317854	-0.17331058
10	0xbdb4a963	-0.088213705
11	0x3e0f68a5	0.14004762
12	0xbd9cce6a	-0.07656558
13	0xbd0ae5b9	-0.033910487
14	0xbdbd1fa4	-0.092345506
15	0x3e378355	0.17921193
16	0xbe567c85	-0.20945938
17	0x3ec194f1	0.37808946
18	0xbdc0e4c0	-0.094186306
19	0xbe3b4bca	-0.1829063
20	0x3def8a58	0.11696309
21	0xbe92d0b4	-0.28674853
22	0x3f6f8432	0.9356109
23	0x3c5996ce	0.013280584
24	0xbe4d7ada	-0.20066395
25	0xbf3dd6ee	-0.7415608
26	0x3b8d2642	0.004307539
27	0xbc6eee84	-0.014583234
28	0xbdccd0aa	-0.10000737
29	0xbc21beb1	-0.0098721245
30	0x3e086305	0.13319023
31	0x3dddb761	0.108259924

conv2.weight f4 [64, 32, 4, 4]
0	0xbcb16c35	-0.021658042
1	0x3b9ed450	0.004847087
2	0x3c2a1ddc	0.010383096
3	0xbd013f3d	-0.03155445
4	0xbc897e18	-0.016783759
5	0x3cea073a	0.028567899
6	0x3c6b2398	0.014351748
7	0x3d0a14fb	0.033711415
8	0xbc28d68c	-0.010305058
9	0xbcfa267c	-0.030535929
10	0xbccf83a6	-0.02533133
11	0xbd0d1020	-0.034439206
12	0xbc7b17f0	-0.015325531
13	0xbca2be31	-0.019866081
14	0xbca63930	-0.020290941
15	0xb983f100	-0.00025165826
16	0xba321f40	-0.0006794818
17	0xbc9bfd91	-0.019041808
18	0xbc890d69	-0.016730027
19	0xbcb65cef	-0.022261111
20	0xbd2c0391	-0.04199559
21	0xbc1848f0	-0.009294733
22	0xba9445e0	-0.0011312328
23	0x3c0d628c	0.008629452
24	0x3b83dd30	0.0040241703
25	0xbd223f67	-0.039611246
26	0x3a9aa4c0	0.0011798367
27	0x3c48a39c	0.012246039
28	0x3c9d5d7e	0.01920962
29	0xbc071a34	-0.008245993
30	0xbc4a1f28	-0.01233653
31	0x3cd2958a	0.025706071
32	0xbdd37b81	-0.10326291
33	0xbdcb8201	-0.09936906
34	0xbd6ee279	-0.05832145
35	0xbd6d5c14	-0.05794914
36	0xbd94ceb3	-0.07265987
37	0xbcd7248a	-0.02626254
38	0xbcd7981a	-0.026317645
39	0xbd13cf05	-0.0360861
40	0xbd5d83fd	-0.054080952
41	0xbd066e92	-0.03282029
42	0xbda67c19	-0.081291385
43	0xbdb4def6	-0.08831589
44	0xbccccdc2	-0.025000457
45	0xbd843543	-0.06455471
46	0xbd34d205	-0.044145603
47	0xbd89df08	-0.06731993
48	0xbd0f17a6	-0.034934662
49	0xbd8afae2	-0.06786133
50	0xbca3f0fb	-0.02001237
51	0xbdd3699b	-0.10322877
52	0xbdd08e0d	-0.10183344
53	0xbd04f647	-0.03246143
54	0xbcf27d17	-0.029600663
55	0xbdae9fd7	-0.08526581
56	0xbd8c2045	-0.068420924
57	0xbd88ee39	-0.06686062
58	0xbda580b6	-0.0808119
59	0xbda1eb38	-0.079061925
60	0xbdb65b9d	-0.089041926
61	0xbd0d160e	-0.03444486
62	0xbdabc357	-0.083868675
63	0xbda9fe39	-0.08300442
64	0xbd2ed3ff	-0.042682644
65	0xbc9f3d5e	-0.019438442
66	0x3c91574e	0.017741825
67	0x3d2941a9	0.041322384
68	0x3c455fcc	0.012046766
69	0x3cd034be	0.025415774
70	0x3ccf22be	0.025285121
71	0xbb408d50	-0.0029381104
72	0xbc2043a4	-0.009781752
73	0xbcf0c9b6	-0.029393058
74	0x3d239e33	0.039945792
75	0xba3c3640	-0.0007179715
76	0xbd1128eb	-0.035439413
77	0xbc458ab0	-0.012056991
78	0xbcb8c550	-0.022555023
79	0x3cb3028e	0.021851804
80	0xbdb79ba6	-0.089652345
81	0xbd9a1367	-0.07523232
82	0xbdb142a5	-0.086552896
83	0xbd6f3d0a	-0.05840782
84	0xbd3b435c	-0.045718536
85	0xbcf645ac	-0.030062519
86	0xbda40846	-0.080093905
87	0xbd25f27d	-0.040514458
88	0xbd5d3701	-0.054007534
89	0xbda61756	-0.0810992
90	0xbd7b778e	-0.061393313
91	0xbcb54c44	-0.022131093
92	0xbced3d98	-0.028960034
93	0xbd054b51	-0.03254253
94	0xbd7e32c8	-0.062060148
95	0xbdd358c6	-0.103196666
96	0xbd8be33b	-0.0683045
97	0xbdc1f30d	-0.094701864
98	0xbd34cb8b	-0.044139426
99	0xbd9a5b27	-0.07536917
100	0xbd28f012	-0.041244574
101	0xbd1a98cb	-0.03774337
102	0xbd859aff	-0.06523704
103	0xbd9d2c20	-0.07674432
104	0xbdaf3839	-0.085556455
105	0xbd7f4a16	-0.062326513
106	0xbdc0ef7f	-0.0942068
107	0xbd1f0648	-0.03882435
108	0xbcecd2f4	-0.028909184
109	0xbdbdfb6d	-0.09276471
110	0xbcb19da6	-0.021681618
111	0xbd95d495	-0.073159374
112	0xbdcc92de	-0.0998895
113	0xbd9d04a7	-0.07666903
114	0xbd412228	-0.047151715
115	0xbda77da2	-0.081782594
116	0xbda9575b	-0.08268615
117	0xbdbbfca0	-0.09179044
118	0xbdb4c571	-0.088267215
119	0xbd63c3e1	-0.055606727
120	0xbcbc9684	-0.02302099
121	0xbdcde8f1	-0.10054196
122	0xbce35ebf	-0.02775514
123	0xbcbb3de6	-0.022856664
124	0xbda5b74c	-0.08091602
125	0xbc86bdf4	-0.016447999
126	0xbd92bfe9	-0.0716551
127	0xbca20c4b	-0.019781252
128	0xbd8ce7e0	-0.06880164
129	0xbd2e6a31	-0.04258174
130	0xbd53c326	-0.05169978
131	0xbd900c19	-0.070335574
132	0xbda695df	-0.081340544
133	0xbd9a1e85	-0.075253524
134	0xbd274ed7	-0.040846672
135	0xbd0c5d28	-0.03426853
136	0xbd6917ae	-0.05690735
137	0xbd45a6aa	-0.048254646
138	0xbca12b5c	-0.019673996
139	0xbdc137da	-0.09434481
140	0xbd322ff4	-0.043502763
141	0xbd933700	-0.07188225
142	0xbda471eb	-0.08029541
143	0xbd4970d8	-0.04917988
144	0x3dc732de	0.09726499
145	0xbdc1a953	-0.09456124
146	0xbd6cc32f	-0.05780333
147	0xbd45d5ae	-0.048299484
148	0x3d94606a	0.07244952
149	0x3d8abb50	0.06774008
150	0xbce385f9	-0.027773844
151	0xbc9f1e05	-0.019423494
152	0x3d0dc6d6	0.034613453
153	0x3d9d73c2	0.07688095
154	0xbce95604	-0.028483398
155	0xbd8a19e9	-0.06743223
156	0x3cf4b2ed	0.029870475
157	0x3ca99981	0.02070308
158	0xbd98672c	-0.074415535
159	0xbdcaf0e9	-0.09909231
160	0x399a4480	0.00029424205
161	0xbd079b1c	-0.03310691
162	0x3bf22e80	0.007390797
163	0x3d122359	0.03567824
164	0x3cf4d362	0.029885951
165	0x3ca6733a	0.020318616
166	0xbd0d80cb	-0.034546655
167	0x3d0a1723	0.03371347
168	0xbc41d8f4	-0.011831511
169	0x3c846f40	0.01616633
170	0xbb897910	-0.00419534
171	0x3cd26462	0.025682632
172	0x3be24508	0.006905202
173	0x3cc2e0ae	0.023788776
174	0xbca73365	-0.020410249
175	0xbc9a139c	-0.018808179
176	0x3ca6a3ba	0.020341743
177	0x3c06afa8	0.008220591
178	0x3bfb23e0	0.0076641887
179	0xbc75945a	-0.014988983
180	0xbc8fb992	-0.017544542
181	0xbcc2f242	-0.023797158
182	0xbd29c416	-0.041446768
183	0x3c58c830	0.013231322
184	0x3c1d9114	0.009617109
185	0x3c905cd4	0.017622389
186	0xbd34644f	-0.044040974
187	0xbcc9c2c5	-0.024629006
188	0xbcbd08dd	-0.023075515
189	0x3d1cb3df	0.038257476
190	0x3cc3a286	0.023881208
191	0x3d07734b	0.033068936
192	0xbdc04f9a	-0.09390183
193	0xbd2fea41	-0.04294801
194	0xbd890bdf	-0.06691717
195	0xbdba9e54	-0.0911223
196	0xbd9206d4	-0.071302086
197	0xbd22d33c	-0.03975223
198	0xbd2dedd8	-0.042463154
199	0xbd8b4dfb	-0.06801983
200	0xbd9a3032	-0.07528724
201	0xbd359c67	-0.04433861
202	0xbd4279eb	-0.04747955
203	0xbd8afa0a	-0.067859724
204	0xbdc7b2ba	-0.09750886
205	0xbd751323	-0.059832703
206	0xbdb08950	-0.0861994
207	0xbd93b08c	-0.07211408
208	0xbdb114f7	-0.08646577
209	0xbdb0c261	-0.08630825
210	0xbd0e2c82	-0.034710415
211	0xbdb78445	-0.08960775
212	0xbd957d68	-0.0729931
213	0xbdbca701	-0.09211541
214	0xbdb915ee	-0.09037386
215	0xbc8289b0	-0.015934795
216	0xbd5f6ff6	-0.054550134
217	0xbd6bff8b	-0.05761675
218	0xbcbb010e	-0.022827651
219	0xbce980ca	-0.028503794
220	0xbd784f6c	-0.060622618
221	0xbd951260	-0.072788954
222	0xbd99abf7	-0.07503503
223	0xbd2e9636	-0.04262372
224	0xbd2b5d91	-0.04183728
225	0xbb0ba160	-0.0021305904
226	0xbbb1e160	-0.005428478
227	0xbcd7fb5d	-0.026364977
228	0xbc992498	-0.018694207
229	0x3c00fbb4	0.007872511
230	0xbcce8ece	-0.025214579
231	0x3cec3de6	0.02883811
232	0x3c0e063c	0.008668479
233	0xbc4a2430	-0.012337729
234	0xbc30b318	-0.010784887
235	0xbcbd0480	-0.023073435
236	0x3c167f70	0.009185657
237	0xbd0380f6	-0.03210541
238	0x3c841088	0.016121164
239	0xbcc22c31	-0.023702713
240	0xbc893023	-0.016746586
241	0x3cb58bea	0.022161443
242	0xbc24134c	-0.010014366
243	0x3cda36da	0.026637483
244	0x3d02c2bd	0.031924
245	0xbca94c14	-0.02066616
246	0x3ad62f80	0.001634106
247	0xb8b75a00	-8.742884e-05
248	0x3d2b220f	0.041780528
249	0x3d341ecd	0.043974686
250	0x3a54de80	0.0008120313
251	0x3c904ad6	0.01761381
252	0xbce87afa	-0.028378952
253	0x3d237545	0.03990676
254	0xbca6edad	-0.020377005
255	0x3a03d240	0.0005028583

conv2.bias f4 [64]
0	0xbdaa2527	-0.083078675
1	0xbd512527	-0.05106082
2	0xbd464fe1	-0.048416022
3	0xbd3d1915	-0.0461665
4	0xbd03895c	-0.032113418
5	0xbca48520	-0.02008301
6	0xbd825570	-0.06363952
7	0xbccd9cc2	-0.025099162
8	0xbd16a680	-0.03677988
9	0xbc9f403c	-0.019439809
10	0xbd928bee	-0.07155596
11	0xbcfe4d06	-0.031042587
12	0xbfb4f10f	-1.4136065
13	0xbc2a5723	-0.010396752
14	0xbd79ab1c	-0.0609542
15	0xbd2e79ae	-0.04259651
16	0xbcfc7ab2	-0.030820224
17	0x3d5b23b1	0.053500835
18	0xbd709d92	-0.05874402
19	0xbd852a3a	-0.06502195
20	0xbd8046b5	-0.06263486
21	0xbcaf0c48	-0.02136816
22	0xbd9f84dd	-0.077890135
23	0xbdaa5077	-0.08316129
24	0xbd9c88dc	-0.07643291
25	0xbd6dddc1	-0.05807281
26	0xbda898c0	-0.0823226
27	0x3db5bfb7	0.08874457
28	0xbd29e996	-0.04148253
29	0xbd3acc1f	-0.04560482
30	0xbcfa7f5d	-0.03057831
31	0xbe971ef6	-0.2951581
32	0xbdabfd60	-0.08397937
33	0xbdacfcb7	-0.08446639
34	0xbd4bbbef	-0.049739774
35	0xbbf61d83	-0.0075108423
36	0xbf8feead	-1.1244713
37	0xbd8bdd8c	-0.06829366
38	0xbd8f0016	-0.06982438
39	0xbdb1d824	-0.08683804
40	0xbcc691eb	-0.024239501
41	0xbdb5c2eb	-0.08875068
42	0xbfa97052	-1.3237402
43	0xbdf96c68	-0.1217888
44	0xbecf3b2f	-0.4047484
45	0xbdab151c	-0.08353636
46	0xbd08bc09	-0.03338245
47	0xbd32eea2	-0.04368461
48	0xbd600939	-0.054696295
49	0xbd14008f	-0.036133345
50	0xbd129ed6	-0.03579601
51	0xbd2c81c4	-0.04211594
52	0xbdc654f4	-0.09684172
53	0xbc83d84c	-0.01609435
54	0xbd9f56ae	-0.07780205
55	0xbcd87d76	-0.026427012
56	0xbd1c649a	-0.03818188
57	0xbda2381e	-0.0792086
58	0xbd46ce03	-0.04853631
59	0xbd3eb17c	-0.04655598
60	0xbd3c5653	-0.045980763
61	0xbce050bc	-0.027382247
62	0xbd9c3d84	-0.07628921
63	0xbd94535a	-0.072424605

conv3.weight f4 [32, 64, 4, 4]
0	0x3baa96c0	0.005205959
1	0x3bef52b0	0.0073035583
2	0x3c5e6658	0.013574205
3	0xbc5f1478	-0.01361572
4	0xbc9e7026	-0.019340586
5	0xbbf7aa30	-0.0075581297
6	0xbc07093c	-0.008241948
7	0x3c6a0c5c	0.014285173
8	0xbce79b84	-0.028272398
9	0xbc0588c8	-0.008150287
10	0x3ceae646	0.028674256
11	0x3cef668e	0.029223707
12	0xbc38531c	-0.011250284
13	0xbc3f54f8	-0.011677973
14	0x3c65a814	0.014017124
15	0x3bb969e8	0.005658377
16	0xbd69bef1	-0.05706686
17	0xbd94c558	-0.07264203
18	0xbd6841eb	-0.05670349
19	0xbcc118f2	-0.023571465
20	0xbd184266	-0.037172697
21	0xbd0d62b0	-0.034517944
22	0xbd164c9b	-0.03669415
23	0xbd4bb836	-0.049736224
24	0xbd91ae8c	-0.0711337
25	0xbcde8372	-0.027162287
26	0xbc98b8d9	-0.01864283
27	0xbcb47607	-0.022028936
28	0xbd8323dd	-0.06403325
29	0xbd3b7f2c	-0.045775577
30	0xbd202b7d	-0.039103974
31	0xbcc98816	-0.024601024
32	0x3ce076da	0.027400423
33	0x3d31e705	0.043433208
34	0x3d572f99	0.052535627
35	0x3d4de713	0.050269198
36	0x3d610241	0.05493379
37	0x3d721d28	0.059109837
38	0x3da00566	0.0781353
39	0x3d56ef08	0.05247405
40	0x3d852785	0.065016784
41	0x3ce61832	0.02808771
42	0x3d7a5cff	0.061123844
43	0x3cf7807c	0.030212633
44	0x3d1f1890	0.038841784
45	0x3d794d6c	0.06086485
46	0x3d22cad2	0.039744206
47	0x3d004189	0.0313125
48	0x3d26ba7f	0.0407052
49	0x3d42574f	0.047446545
50	0x3d95656a	0.07294734
51	0x3d201200	0.039079666
52	0x3d9626ec	0.073316425
53	0x3d935431	0.071937926
54	0x3d2a9f13	0.04165561
55	0x3d4a6249	0.04941014
56	0x3d2065d3	0.039159607
57	0x3d8eeb75	0.069785036
58	0x3d9e43d8	0.07727784
59	0x3d2feff5	0.04295345
60	0x3d7423b4	0.05960436
61	0x3d5b2a66	0.05350723
62	0x3d8b926f	0.06815039
63	0x3d88576d	0.066573
64	0x3c834536	0.016024213
65	0xbc8ca23a	-0.0171672
66	0xbb532fb0	-0.003222447
67	0x3cd3d372	0.02585766
68	0xbcaa8d1a	-0.020819236
69	0x3c54bd3c	0.01298457
70	0x3c018808	0.0079059675
71	0x3ba31778	0.004977163
72	0xbc97e9fa	-0.018544186
73	0xbc3bef80	-0.0114706755
74	0xbcc902b6	-0.024537425
75	0xbc965454	-0.018350758
76	0x3cdc11ca	0.026863951
77	0x3bd45d48	0.0064808466
78	0xbb96bad0	-0.0045999065
79	0xbbd98740	-0.0066384375
80	0xbcded2da	-0.027200151
81	0xbc4c68e4	-0.01247618
82	0x3ba60078	0.005065974
83	0xbbdebb68	-0.006797243
84	0xba914840	-0.0011084154
85	0xbcc60c84	-0.02417589
86	0x3c296fc4	0.010341588
87	0xbc90272a	-0.0175968
88	0xbcb16eb6	-0.021659236
89	0xbca7c450	-0.020479351
90	0xbcc641b8	-0.024201259
91	0x3a27ed40	0.00064058974
92	0xbcc07538	-0.023493394
93	0xbcab60a8	-0.020920113
94	0x3c8732c4	0.0165037
95	0xbc4a529c	-0.012348797
96	0xbc70534c	-0.014668297
97	0x3ce3eac0	0.027821898
98	0xbc201f94	-0.009773154
99	0x3c9547f2	0.018222783
100	0x3cfd1900	0.03089571
101	0x3b91e998	0.0044528954
102	0xbca133e0	-0.019678056
103	0x3a1ddec0	0.0006022267
104	0xbbe996e8	-0.007128585
105	0x3c1fcb9c	0.009753134
106	0xbc8609a8	-0.016362026
107	0xbc9451a4	-0.018105336
108	0xbc318f4c	-0.010837387
109	0x3bb90ff8	0.0056476556
110	0xbc74a79c	-0.014932539
111	0xbc837554	-0.016047157
112	0x3d725011	0.05915839
113	0x3d3884f5	0.045048673
114	0x3d07280a	0.03299717
115	0x3da10817	0.07862871
116	0x3dab61f7	0.08368295
117	0x3d3decf6	0.04636856
118	0x3d7d950c	0.06190972
119	0x3d53fbb0	0.0517537
120	0x3d521a30	0.051294506
121	0x3d76abbe	0.06022238
122	0x3cf5ca7f	0.030003784
123	0x3d99fac0	0.0751853
124	0x3d698acd	0.057017136
125	0x3d554fdb	0.05207811
126	0x3cf82b9c	0.030294232
127	0x3d8a93cf	0.067664735
128	0xbc82c19e	-0.015961464
129	0x3cb9dfe2	0.022689763
130	0xbc153048	-0.009105749
131	0xba983920	-0.0011613704
132	0xbb7d3470	-0.0038635992
133	0xbc08b89c	-0.008344796
134	0x3c4ecf74	0.012622703
135	0xbc047734	-0.008085061
136	0x3cd044d6	0.025423449
137	0xbc149ad4	-0.009070117
138	0xbcb4bf4c	-0.022063874
139	0x3cea3758	0.028590843
140	0x3c95c4ec	0.018282376
141	0x3cc777d2	0.024349127
142	0x3c6c1ea4	0.014411602
143	0x3b6d6680	0.0036224425
144	0xbd76472c	-0.06012647
145	0xbcdd6a64	-0.02702827
146	0xbccb6cc2	-0.024832133
147	0xbd68c052	-0.056824036
148	0xbc9a2c27	-0.018819882
149	0xbd5a16d4	-0.053244427
150	0xbd283509	-0.041066203
151	0xbd0f02ed	-0.0349149
152	0xbd95aa4a	-0.07307871
153	0xbca2b90b	-0.019863626
154	0xbc855554	-0.01627604
155	0xbcf132be	-0.029443141
156	0xbd933854	-0.07188478
157	0xbd46cc35	-0.04853459
158	0xbd8206b2	-0.06348933
159	0xbd8e3e8a	-0.06945522
160	0xbb9fbc88	-0.0048747696
161	0x3c86bc5e	0.016447242
162	0xbba24bd0	-0.004952885
163	0x3bed52a8	0.0072425194
164	0xbc660a64	-0.014040563
165	0xbce9d2f0	-0.028542966
166	0xbcde60f8	-0.027145848
167	0x3c0781c4	0.008270685
168	0x3c9dbdcc	0.019255541
169	0xbcccd63c	-0.025004499
170	0x3ccf336c	0.025293075
171	0xbcc30dc8	-0.023810282
172	0xbc1e2198	-0.009651564
173	0x3cf62c50	0.030050427
174	0xbceb7740	-0.028743386
175	0xbbee4708	-0.007271651
176	0x3d9d08e1	0.07667709
177	0x3cfb3793	0.030666148
178	0x3d9f4d59	0.07778425
179	0x3d800255	0.06250445
180	0x3d8f0fa7	0.06985407
181	0x3cdc9327	0.026925636
182	0x3ce00459	0.027345823
183	0x3d3bad38	0.04581949
184	0x3d53a350	0.05166942
185	0x3d512824	0.05106367
186	0x3da529fe	0.0806465
187	0x3cfb7198	0.030693814
188	0x3d2449c1	0.0401094
189	0x3d02e121	0.03195298
190	0x3d75713f	0.059922453
191	0x3d99f03b	0.075165235
192	0x3e37184d	0.17880364
193	0xbc550734	-0.013002206
194	0x3dd7c840	0.105362415
195	0x3dc1bcae	0.09459816
196	0x3ddd24fa	0.10798068
197	0xbd311088	-0.043228656
198	0x3d1d8b32	0.038462825
199	0xbb244257	-0.0025063956
200	0x3d189a7d	0.037256707
201	0xbdce536d	-0.10074506
202	0xbd06bc46	-0.032894395
203	0xbd849550	-0.064737916
204	0x3d0c213f	0.034211393
205	0xbb033fba	-0.0020026998
206	0xbcf6891b	-0.030094674
207	0xbcaee536	-0.02134953
208	0x3d9cd974	0.076586634
209	0x3d9e0703	0.07716181
210	0x3d3cde28	0.046110302
211	0x3d1c91e8	0.038225085
212	0x3d1a095b	0.03760658
213	0x3d913d21	0.070917375
214	0x3d09b257	0.033617344
215	0x3d681f06	0.05667021
216	0x3d34da88	0.04415372
217	0x3d02eec4	0.031965986
218	0x3d49926f	0.049211916
219	0x3d6e76af	0.058218654
220	0x3da594ee	0.08085047
221	0x3d7ce766	0.061744116
222	0x3d2aad90	0.04166943
223	0x3d82d3be	0.06388043
224	0x3d6b6708	0.057471305
225	0x3daa494d	0.08314762
226	0x3d2851f0	0.041093767
227	0x3d2045d2	0.039129086
228	0x3d472c71	0.048626367
229	0x3d3dd01c	0.046341047
230	0x3d858516	0.06519525
231	0x3d1c9455	0.038227398
232	0x3da122f6	0.078679964
233	0x3d08a51e	0.033360593
234	0x3d5104d8	0.05103001
235	0x3cc9e770	0.02464649
236	0x3cd53379	0.02602552
237	0x3cc7724c	0.024346493
238	0x3d4aa443	0.04947306
239	0x3d68e1aa	0.056855835
240	0x3d6ad647	0.057333257
241	0x3da02ccc	0.07821044
242	0x3d8a0a7e	0.067402825
243	0x3b927199	0.0044691083
244	0x3d5fd2cd	0.054644395
245	0x3b1e247e	0.0024130638
246	0x3bbe0af9	0.005799648
247	0xbb382fa4	-0.0028104568
248	0x3d8bfba5	0.06835107
249	0x3c521bc2	0.012824001
250	0x3d328bcf	0.043590363
251	0xbbb74278	-0.0055926405
252	0x3d8acc4d	0.067772485
253	0x3b9e0174	0.0048219506
254	0xbc04453f	-0.00807315
255	0x3d0970e2	0.03355492

conv3.bias f4 [32]
0	0x3edbed4c	0.4295448
1	0x3f7aa639	0.97909886
2	0xbd2dcfca	-0.04243449
3	0xbdd1dfa8	-0.10247737
4	0xbd585667	-0.052816775
5	0xbd67d16d	-0.05659621
6	0xbfabb138	-1.3413458
7	0xbd45361f	-0.048147317
8	0xbd9316a8	-0.07182056
9	0xbf979332	-1.1841795
10	0x3f166401	0.58746344
11	0xbf815b71	-1.0106031
12	0x3cdedbc8	0.02720441
13	0xbd2c8cd5	-0.042126495
14	0x3f07d64c	0.53061366
15	0xbf6b309f	-0.91871065
16	0x3e05389e	0.13009879
17	0xbc3cfe1b	-0.011535193
18	0xbd2bc28f	-0.041933592
19	0x3d9c2327	0.07623892
20	0xbd0d3fac	-0.03448455
21	0x3d4b5a38	0.049646586
22	0x3ec309c8	0.380934
23	0x3c078c68	0.008273222
24	0x3f17d9c4	0.5931666
25	0xbd84e52f	-0.06489026
26	0xbd021bfb	-0.031764966
27	0xbd69a554	-0.057042435
28	0xbd2f1b25	-0.042750496
29	0xbd4077df	-0.046989318
30	0x3d46bee6	0.0485219
31	0xbd9f2a96	-0.077717945

conv4.weight f4 [32, 1, 5, 5]
0	0xbd9f570d	-0.077802755
1	0xbd84a3df	-0.064765684
2	0xbdb762c0	-0.08954382
3	0xbe2888de	-0.1645846
4	0xbe0199ef	-0.12656377
5	0xbe665645	-0.22493847
6	0xbe8fed6e	-0.28110832
7	0xbe2723c1	-0.16322233
8	0xbe92a3a6	-0.2864048
9	0xbe615f6d	-0.22009058
10	0xbddd05d1	-0.10792125
11	0xbd9169a5	-0.07100228
12	0x3d382065	0.04495277
13	0xbd8cc01e	-0.06872581
14	0xbb557a3c	-0.0032574078
15	0x3dfae99c	0.12251589
16	0x3e6908e2	0.22757295
17	0x3e95276b	0.29131636
18	0x3e9f4ecc	0.31114805
19	0x3e27007f	0.16308783
20	0x3e9b227d	0.3029975
21	0x3edca80b	0.43096957
22	0x3eb327c3	0.34991273
23	0x3eff6ebb	0.49889168
24	0x3e9b69d7	0.30354187
25	0xbb1602ab	-0.0022889774
26	0x3d4e396f	0.05034774
27	0x3d1b0e60	0.037855506
28	0x3d1a042d	0.03760164
29	0x3cb6b512	0.022303138
30	0xbccabbe3	-0.024747794
31	0xbc799355	-0.015232881
32	0xbd0d8f6e	-0.034560613
33	0xbc753982	-0.014967324
34	0x3cb2dda6	0.021834206
35	0xbdc6c940	-0.09706354
36	0xbe4376fd	-0.19088359
37	0xbe93d24d	-0.28871384
38	0xbe6d996e	-0.2320306
39	0xbd1960ae	-0.037445717
40	0xbda423db	-0.080146514
41	0xbe3ec069	-0.18628086
42	0xbe9fba48	-0.3119681
43	0xbeca795a	-0.3954571
44	0xbe7335c4	-0.23750979
45	0xbc187de4	-0.009307358
46	0xbd85911f	-0.0652182
47	0xbe63d3e4	-0.22248799
48	0xbe8fccac	-0.2808584
49	0xbe343d74	-0.17601568
50	0x3c84c191	0.01620558
51	0xbc73037e	-0.014832376
52	0x3c8a6f12	0.016898666
53	0x3da1141a	0.07865162
54	0x3c47499c	0.012163546
55	0x3dac465f	0.0841186
56	0x3da7d499	0.08194847
57	0x3dbeb8fd	0.093126275
58	0xbc8a9834	-0.01691828
59	0xbd6a33d0	-0.05717832
60	0x3cf16113	0.029465234
61	0xbdb8a5be	-0.09015988
62	0x3df25c9c	0.1183407
63	0xbd00f1fc	-0.031480774
64	0xbdfc49f6	-0.123187944
65	0xbdb77699	-0.089581676
66	0xbe2878f7	-0.16452394
67	0x3d844ca0	0.064599276
68	0xbe30b83c	-0.1725778
69	0x3d03813c	0.03210567
70	0x3c29f909	0.010374316
71	0x3d812dbe	0.06307553
72	0xbe62d344	-0.22150904
73	0xbdb77774	-0.08958331
74	0x3d0ea076	0.034820996
75	0xbcf95b5c	-0.030439071
76	0x3d32c537	0.04364511
77	0x3e40e34b	0.18836705
78	0xbdd2d148	-0.102938235
79	0x3d11bc4e	0.035579972
80	0xbda6bedc	-0.08141872
81	0xbd3c3b6d	-0.04595511
82	0xbd9958ed	-0.07487664
83	0x3e79aedc	0.2438311
84	0x3d083ff6	0.033264123
85	0xbdb5e93f	-0.08882379
86	0x3d059df9	0.032621358
87	0x3ddb47bb	0.10707041
88	0xbdda8eee	-0.10671793
89	0xbcba10b0	-0.022713035
90	0xbdfeac79	-0.1243524
91	0x3df6d5cb	0.120524965
92	0x3bfb6d99	0.007672977
93	0x3ddfeef7	0.10934251
94	0xbd27acbb	-0.040936213
95	0xbd8a653d	-0.06757591
96	0x3e1960ae	0.14978287
97	0x3df6994d	0.120409586
98	0x3e574d15	0.21025498
99	0x3dbc8ccf	0.092065446
100	0xbd0e7a7a	-0.03478477
101	0x3d272b46	0.040812753
102	0x3e551efd	0.20812602
103	0xbdf308cd	-0.11866913
104	0xbecdbb64	-0.4018203
105	0x3c9f681b	0.019458821
106	0x3d7cc3da	0.061710216
107	0x3d287402	0.04112626
108	0xbdabd5be	-0.083903775
109	0xbda9b29c	-0.0828602
110	0xbe1a2a76	-0.1505526
111	0x3e654928	0.22391188
112	0xbcf1767e	-0.029475447
113	0x3e7d0ece	0.24712679
114	0xbe364582	-0.17799953
115	0x3e155e5c	0.14586776
116	0xbda44f78	-0.0802297
117	0xbde432f2	-0.111425295
118	0xbdcf1db4	-0.10113087
119	0xbc8819b6	-0.016613822
120	0x3d96a120	0.07354951
121	0x3d1f448d	0.038883734
122	0x3dce2016	0.10064714
123	0xbd3cbae7	-0.04607668
124	0x3e514165	0.20435102
125	0x3e1a0a52	0.15043
126	0x3bf61926	0.007510322
127	0xbdacd7b0	-0.084395766
128	0xbdd400a8	-0.10351688
129	0xbcd763a0	-0.026292622
130	0xbdd87bda	-0.10570498
131	0xbd056a17	-0.03257188
132	0xbe07b521	-0.13252689
133	0xbd97b3dd	-0.07407353
134	0xbd8f6a7d	-0.07002733
135	0xbe38b8dd	-0.1803927
136	0x3c76a704	0.015054468
137	0xba1f3308	-0.0006072973
138	0x3e0eda13	0.13950376
139	0xbe5f4dc1	-0.21807005
140	0xbe2a2ca9	-0.16618599
141	0x3e144d24	0.14482552
142	0xbdc41d14	-0.09575859
143	0x3c99ff2d	0.018798435
144	0xbe422f20	-0.1896329
145	0x3d741a98	0.059595674
146	0xbd025543	-0.031819593
147	0xbe2baf60	-0.16766119
148	0xbe5db16d	-0.21649714
149	0x3c98c875	0.018650273
150	0x3c938e05	0.018012056
151	0x3e82f5ff	0.25578305
152	0x3ea58f3e	0.32335848
153	0x3ee19911	0.44062093
154	0x3e5692b3	0.20954399
155	0xbdbcee42	-0.092251316
156	0x3e164ed5	0.1467851
157	0x3eacc37a	0.33742887
158	0x3f00463f	0.5010719
159	0x3e85d182	0.26136404
160	0xbdce3d4b	-0.100702845
161	0xbd940e70	-0.07229316
162	0x3e2b80b5	0.16748317
163	0x3e5222de	0.20521113
164	0x3dc8803a	0.09790082
165	0xbe844bdc	-0.25839126
166	0xbe8d946c	-0.276523
167	0xbda98096	-0.08276479
168	0x3da43bd4	0.08019224
169	0x3b4d10d9	0.003129056
170	0xbe66b30f	-0.22529243
171	0xbe5ca08b	-0.21545617
172	0xbde0975e	-0.10966371
173	0x3d04b891	0.03240258
174	0xbc385293	-0.011250156
175	0xbe2ccbfd	-0.1687469
176	0xbd9d3a64	-0.07677153
177	0x3d3a1f3a	0.045439936
178	0x3bb3ec4b	0.005490815
179	0xbc6aa179	-0.014320725
180	0xbcc36a7f	-0.023854492
181	0x3d685f42	0.05673147
182	0xbd6aa29d	-0.057283986
183	0x3dd2ca93	0.10292544
184	0xbe3d902a	-0.18512025
185	0x3de17ac0	0.11009741
186	0xbe113b5c	-0.141828
187	0xbe4b33ae	-0.19843933
188	0xbe2ae5f0	-0.16689277
189	0xbdc92f54	-0.0982348
190	0xbe33ae17	-0.17546879
191	0xbe60089b	-0.21878283
192	0xbe601a41	-0.21885015
193	0x3d2d4b88	0.04230836
194	0x3d6307ed	0.05542748
195	0xbd859b66	-0.065237805
196	0x3d808960	0.06276202
197	0x3e0c0bdf	0.13676403
198	0xbe4a4865	-0.19754179
199	0xbe694d43	-0.2278338
200	0xbe2c18fb	-0.16806404
201	0x3dd50ac8	0.10402447
202	0xbe711ac1	-0.23545362
203	0xbdf9a133	-0.121889494
204	0xbe2fcda0	-0.17168283
205	0xbb79fa0f	-0.0038143431
206	0x3e09a35a	0.1344122
207	0xbd8d2552	-0.06891884
208	0xbe6e8296	-0.23292002
209	0xbe01f3e6	-0.12690696
210	0x3d5ad9b9	0.053430293
211	0x3de19734	0.11015168
212	0xbe187217	-0.14887272
213	0xbdec753e	-0.115458
214	0x3e09874b	0.13430516
215	0x3aafe460	0.0013419501
216	0xbe39290d	-0.18082066
217	0x3e056d90	0.13030076
218	0xbdcdd481	-0.100502975
219	0x3e022676	0.12709984
220	0x3dbb9988	0.09160143
221	0xbe2b45d9	-0.16725864
222	0xbe82c038	-0.25537276
223	0x3decdda2	0.115657106
224	0xbe434c7d	-0.19072147
225	0x3e8bf143	0.27332506
226	0x3ec5ad46	0.3860876
227	0x3f79a551	0.9751788
228	0x3f4efca7	0.80854267
229	0x3f2861c7	0.65774196
230	0x3e64a273	0.22327594
231	0x3eb4ad60	0.35288525
232	0x3f9366bd	1.1515728
233	0x3f7322bf	0.94974893
234	0x3f4cd287	0.8000874
235	0xbd0a41bf	-0.033754107
236	0xbd13ec5e	-0.03611409
237	0x3ef99e08	0.4875338
238	0x3eca7603	0.3954316
239	0x3ecd00e6	0.40039748
240	0x3dc75863	0.09733655
241	0x3ddc1df3	0.107479
242	0x3f54dc00	0.83148193
243	0x3f1e374e	0.6180314
244	0x3f1079c9	0.5643583
245	0x3df60590	0.1201278
246	0x3e241e56	0.16027197
247	0x3f391f56	0.7231344
248	0x3f07a2e4	0.52982926
249	0x3eed2114	0.463143
250	0xbe878a79	-0.26472834
251	0xbeb35212	-0.35023552
252	0xbedf131f	-0.43569276
253	0xbe02b2dc	-0.12763542
254	0xbce4926a	-0.027901847
255	0xbee47804	-0.44622815
