nn-model.pth (torch, 5071 bytes, 7 tensors)

conv1.weight f4 [3, 1, 5, 5]
000000 9f a4 a2 3d 28 cf 0b 3e 0a a1 1a be af 30 0e 3d
       0.07941555 0.13653243 -0.15100494 0.034714397
000010 66 cc 16 bd dc 84 5c 3e 5b 56 4b bd 64 d4 17 be
       -0.036816023 0.21535057 -0.049642902 -0.14827114
000020 23 21 d9 3b 9a a6 15 3e 03 99 f5 3d 25 c1 54 3d
       0.0066262647 0.14614335 0.11992075 0.05194201
000030 42 24 d6 3d c2 c1 ce bd 51 e1 50 3e 03 2c 83 3e
       0.104561344 -0.1009555 0.20398451 0.25619516
000040 a9 61 50 3e 35 c0 22 bd eb b2 3a bd bf 87 2c bc
       0.20349754 -0.039734084 -0.045580786 -0.010530411
000050 7b c4 6f bd e6 fe 0b be d0 28 5b 3e 94 fc 24 3e
       -0.058536988 -0.13671455 0.21402287 0.16111976
000060 fd 4f 0d 3e 17 de 97 3d be 7d ac bc 33 00 1c be
       0.13800044 0.07415407 -0.021056052 -0.15234451
000070 36 9b 0c 3e c0 85 55 3e bc f1 5a 3d 33 c3 14 3e
       0.13731083 0.20851803 0.053453192 0.14527588
000080 b5 81 03 3e 42 07 18 3e 67 43 94 3d ae d6 08 3d
       0.12842448 0.14846519 0.072394185 0.03340786
000090 a9 ae 9b bd f5 6f 08 3e 5e cf f2 3d b4 75 0a 3d
       -0.07601673 0.13323958 0.118559584 0.033803657
0000a0 13 b0 23 bc f9 b5 db 3d f7 a6 cb bd 8d 88 cf bd
       -0.00999071 0.10728068 -0.099439554 -0.10133467
0000b0 10 f7 92 bd e0 13 42 bd 7a 86 0e bd 0c 99 12 3e
       -0.0717603 -0.047382236 -0.034796216 0.14316195
0000c0 11 ab 73 bc 67 e7 31 3e f2 d0 e1 bb 04 f3 82 be
       -0.014872328 0.17373429 -0.0068913633 -0.2557603
0000d0 f7 6f da 3d 79 dc 05 bc 45 82 83 be 82 b2 8a 3d
       0.10665887 -0.008170241 -0.25685325 0.06772329
0000e0 07 f9 11 be be 3f f3 3d e0 ab 2c be 07 c9 31 bd
       -0.14255153 0.11877392 -0.1686244 -0.043404605
0000f0 cd ee d9 bc 14 e9 04 be d8 47 82 be 82 05 71 bd
       -0.026603127 -0.12979537 -0.25445437 -0.058843143
000100 29 93 8c 3d 9f 55 f0 3d 81 2c f5 3d 30 99 f9 bd
       0.06864006 0.11735081 0.11971379 -0.12187421
000110 56 bf 2b be 52 95 82 be 59 6d 70 be 6e e3 f0 bc
       -0.16772208 -0.25504547 -0.23479213 -0.029405322
000120 5d d7 84 3c 86 97 da bd 69 98 ac 3d
       0.016215974 -0.10673432 0.084275074

conv1.bias f4 [3]
000000 06 32 82 bf 4f bc 72 bf d8 77 5b 3c
       -1.0171516 -0.94818586 0.013395272

conv2.weight f4 [5, 3, 4, 4]
000000 eb 1d 3a be 1a 8d 9f bd 51 5c 3e 3c ed a8 8a 3d
       -0.18175475 -0.07790585 0.01161869 0.06770501
000010 55 4a d6 bc 8c 27 c5 bd 15 e6 d0 3d 02 2c 85 3d
       -0.026158491 -0.096266836 0.10200135 0.065025344
000020 47 ac c7 bd 15 fa 0a be de 0c 92 3d aa 15 3c 3e
       -0.09749656 -0.13571961 0.071313605 0.18367639
000030 d9 5b 85 bd ce 8d cd 3d 4e 50 17 3d 1b df 5d 3e
       -0.06511659 0.10036813 0.03694182 0.21667139
000040 93 46 05 bd 9d d8 78 3d 8b e5 b7 3d 28 76 28 3e
       -0.032538008 0.060753454 0.08979329 0.16451323
000050 6a 00 2c bc ed 9a 91 bc ec 80 0c 3e 9f d8 d5 3d
       -0.010498146 -0.01777407 0.13721055 0.10441708
000060 ac 06 2f be c5 b6 e8 3d 72 dc ec 3d 35 c8 c1 3d
       -0.17092389 0.113629855 0.11565484 0.094620146
000070 4f f5 51 3d 53 16 df bd 42 6c 29 bd 57 62 ef 3d
       0.051259335 -0.1089293 -0.04136301 0.11688679
000080 aa 1c 2c 3e 21 f7 49 3d 0c 70 60 bc 67 2f 27 3e
       0.1680781 0.049307946 -0.013698589 0.16326676
000090 e5 f1 31 3d d4 b2 c2 3c a9 f0 0c 3e b4 7e 0c 3d
       0.04344358 0.023766913 0.1376368 0.03430052
0000a0 e0 59 ca bc 3c c3 87 bd f9 0d 4d 3d 15 f4 5e 3d
       -0.024701059 -0.06629035 0.050062153 0.054431994
0000b0 22 ec 25 3d eb 27 2b 3e 66 50 4a bd 1a 08 19 3d
       0.040508397 0.16714446 -0.04939308 0.037361242
0000c0 62 1a 68 3e d0 43 f7 3d ab da 4b 3d 61 81 fd bb
       0.22666314 0.12073481 0.049769085 -0.0077363704
0000d0 e1 a2 30 3d e5 36 92 bc 1a 77 07 bd f2 0d cf 3d
       0.043124083 -0.017848441 -0.03307257 0.10110082
0000e0 69 88 41 3e 72 47 98 3d 4d 24 82 bd e5 57 e0 bd
       0.18899693 0.07435502 -0.0635458 -0.109542646
0000f0 1e 53 63 3e c5 9a 1f 3e 98 30 e6 3a dd dd dd 3d
       0.22199675 0.15586384 0.001756209 0.10833333
000100 f1 f1 32 3e 42 6f 02 3e 8d 3b d9 ba 6b 3a 44 bd
       0.17475106 0.12737754 -0.0016573534 -0.047907274
000110 b7 fb a9 3d e5 be 8e bd e4 80 51 bd af ff 1c 3e
       0.08299964 -0.06970004 -0.05114831 0.1533191
000120 e1 db d7 bc 8d 92 4d 3c f1 d9 67 3d 08 36 bf bd
       -0.026349964 0.012547147 0.05660433 -0.093364775
000130 d5 4f 9e 3d d1 60 29 3d e9 62 28 bd 84 68 fd 3d
       0.077300705 0.041352097 -0.041109953 0.123734504
000140 f2 2b e9 3d 27 9b 1a 3e 16 51 0e bc d0 13 6e bd
       0.11385335 0.15098248 -0.008686325 -0.058124363
000150 78 07 ed 3d c0 11 b2 3d ca 35 2c 3d 6b 6a 41 3e
       0.1157369 0.08694792 0.042043485 0.18888251
000160 6a 59 f6 3d 4f fd 35 3e f6 e6 8d bc bd 77 ed 3d
       0.12028773 0.17772411 -0.017322045 0.11595104
000170 1c 00 e4 3d ed f5 05 3d e6 bd 0d 3e 58 61 a8 3d
       0.11132833 0.032705236 0.13841972 0.08221692
000180 38 c0 7f bd 96 92 a9 bd a8 42 be bc ff 2e 91 bd
       -0.062439173 -0.08279912 -0.023225144 -0.07089042
000190 15 0a 1a be e9 0b 35 3d a7 8d 09 be 19 cf 28 bb
       -0.15042908 0.04420081 -0.13432942 -0.0025758205
0001a0 96 86 7c bd fe f2 2b be b2 cb 74 3d 19 bb 22 bd
       -0.06165179 -0.16791913 0.05976457 -0.03972921
0001b0 50 7b 05 ba 7c 08 71 bc 65 ab 4c bd e2 ff 0d bd
       -0.00050919224 -0.0147114955 -0.049968142 -0.034667857
0001c0 f8 d4 0a 3d d2 d0 2a 3b cb 9c a9 bd 78 85 1d be
       0.03389451 0.0026064408 -0.08281859 -0.15382946
0001d0 d5 b5 0a bd 66 b4 29 be 4d 58 d4 3c 5b 1c b4 bd
       -0.033864815 -0.16572723 0.025921011 -0.08794471
0001e0 a3 c5 11 be 47 54 c5 bd c0 d4 28 be bb 9f 05 be
       -0.14235549 -0.09635215 -0.16487408 -0.13049214
0001f0 c9 19 fb 3c cd 03 7f 3b 7f 34 2c be fd f1 a6 3d
       0.030651944 0.0038912178 -0.168169 0.08151624
000200 d4 ad ad bd 32 97 97 3d 63 fd 4a be 6d 02 95 bd
       -0.08480421 0.07401885 -0.19823222 -0.07275853
000210 e3 ef 9c bd bc 82 a8 3d 22 80 ab 3c 2e 1b 8a bd
       -0.07662942 0.082280606 0.020935122 -0.06743465
000220 e8 b4 bf bd 65 79 d2 bd 5b 63 8b 3d b8 ba e4 bd
       -0.09360677 -0.102770604 0.0680606 -0.11168426
000230 8d bd c7 3c 92 1b 2e be 30 0e 45 3a 9e 19 51 be
       0.024382377 -0.17002705 0.0007517068 -0.20419928
000240 30 c1 0c be 8b 91 e1 bd f7 03 02 be 97 56 0b be
       -0.1374557 -0.11014088 -0.12696825 -0.1360725
000250 96 bc af bd 8f f6 25 be a2 d0 c9 bc 76 10 4e be
       -0.08580892 -0.16207336 -0.024635617 -0.20123467
000260 e7 2e 02 be c3 21 44 be 69 7d f7 bd 9a 2a ac bb
       -0.12713204 -0.19153504 -0.12084467 -0.005254102
000270 8e 3c 50 be d4 81 99 3c 99 2e aa bd f0 62 8e bd
       -0.203356 0.018738665 -0.08309669 -0.069524646
000280 5d f3 cd bd bb 1e f8 bc a0 c7 3d 3a 22 b7 22 be
       -0.100561835 -0.03028809 0.0007239524 -0.15890172
000290 c1 dc 3f be 18 a0 18 be 5b eb 48 be 28 1a c0 bd
       -0.18736555 -0.14904821 -0.19621031 -0.09379989
0002a0 eb 35 2f be 3d 21 2e be c6 4f b4 bd 5a 5d 61 3d
       -0.17110412 -0.17004867 -0.08804278 0.055020668
0002b0 77 93 98 3c 23 d4 a9 3d 9b 7c 8e bd 7b 3b 8f 3d
       0.018625004 0.08292415 -0.0695736 0.06993767
0002c0 8c 7a 1b be 3c a4 87 3d 4c 5c 2e 3d 68 83 84 bc
       -0.15183467 0.06623122 0.04256849 -0.01617594
0002d0 bb 64 be bd 4a 6b 89 3d 00 db 2c bc 88 70 78 3d
       -0.092965566 0.06709917 -0.010550261 0.060654193
0002e0 60 9c 6b bd 90 ad 8d bc b0 00 ab 3c a4 59 6a bd
       -0.057522178 -0.017294675 0.020874351 -0.057214394
0002f0 a5 d7 6f bd 4e f1 a6 bd 78 46 b1 bc 00 35 47 3a
       -0.058555264 -0.08151494 -0.021640047 0.0007599145
000300 18 ee a2 3d 28 6c ba 3c 9c 02 03 3e 00 a8 a9 b9
       0.07955569 0.022756651 0.12793964 -0.00032359362
000310 4b d3 0b be 5d 54 f9 bd 9a 12 30 bd 30 39 0f 3e
       -0.1365482 -0.12174294 -0.04298649 0.13986659
000320 87 cc cb bd 40 34 13 3b 1b a0 95 bd c0 56 df bc
       -0.0995112 0.0022461563 -0.07305928 -0.027263045
000330 fe ce ce bd 08 89 a1 bc 10 64 0a 3e 98 d9 9a bc
       -0.100980744 -0.019718662 0.13514733 -0.018902585
000340 78 68 a4 bc 18 4e b1 bc ec cf aa bd 2c 73 bc bd
       -0.020069346 -0.021643683 -0.08340439 -0.09201655
000350 90 62 0b be 60 8f 3d 3c f4 43 ad 3d 48 a6 62 3d
       -0.13611817 0.011569828 0.08460227 0.05533436
000360 4c d9 25 3d 22 52 f7 bd c1 b1 e7 bd 3c 32 b4 bd
       0.040490434 -0.120762125 -0.11313201 -0.08798644
000370 bc 16 4c bd ba 0b 82 3d e1 36 cf bd e0 9e 34 3c
       -0.04982637 0.06349893 -0.10117889 0.011024207
000380 98 28 b2 3d ae 59 a6 bd 9c d4 60 bd 98 50 44 3d
       0.08699149 -0.08122574 -0.05489026 0.047928423
000390 ab 65 07 be e6 77 94 3d f1 40 c7 bd d8 f2 f8 3c
       -0.13222377 0.07249431 -0.097291835 0.030389234
0003a0 bc b1 05 be c0 78 19 bc d2 de 03 3e 7c 23 65 3d
       -0.13056082 -0.009367168 0.12877968 0.055942044
0003b0 28 21 92 bd 32 30 95 3d 1c a1 cb bd c1 3c ea bd
       -0.0713523 0.07284583 -0.099428385 -0.11437369

conv2.bias f4 [5]
000000 11 4e 50 bf 5e 50 92 bf 6d b2 26 be c2 a0 3e be
       -0.8136912 -1.1430776 -0.16279002 -0.18616012
000010 60 08 fa 3c
       0.030521572

conv3.weight f4 [3, 5, 4, 4]
000000 3c 17 2f 3d 5b 20 00 3d cc a7 07 bd bf b4 0f 3e
       0.042746767 0.031280857 -0.033119008 0.14033793
000010 97 fb 33 3d a9 99 27 3d 15 d9 14 3e 56 d3 42 3e
       0.043941107 0.040918026 0.14535935 0.19025931
000020 c7 e2 d1 bd 88 77 8e bd 8d c9 21 3e 2a 9e 10 3e
       -0.102483325 -0.069563925 0.15799542 0.14122835
000030 f6 ac 9e 3c db 91 a0 3b fb fb dc 3d b2 ae 42 3e
       0.019369584 0.0049002 0.10790249 0.19011953
000040 fe 4f 24 3d 44 18 b3 bd 5d 0b a1 bd 59 8e 1d bd
       0.04011535 -0.08744863 -0.078634955 -0.03846583
000050 14 95 a6 3d 9a 00 7d 3d ed e6 de 3c 0d cb 52 3d
       0.08133903 0.06176815 0.027209723 0.051463176
000060 7d 75 12 3d ab 2f 03 bd eb 0a 88 bc a8 b6 4f 3d
       0.035756577 -0.03202788 -0.016606769 0.050711304
000070 0f f3 1a bd 33 a7 53 3c ef 15 00 3e b3 16 21 3d
       -0.037829455 0.012918281 0.12508367 0.03932829
000080 8a 05 10 bd a8 dd ed 3d 83 18 2f bd fd 8f 0b bd
       -0.035161532 0.11614543 -0.042747986 -0.034072865
000090 7d ce d4 3d f6 e7 00 3d 3d 66 2d bd 58 42 ca 3d
       0.10390947 0.031471215 -0.04233383 0.09875935
0000a0 f4 7a 9c 3d 32 d8 8d bc 31 32 f6 3d 02 64 29 3e
       0.07640639 -0.017315004 0.12021292 0.16542056
0000b0 aa 6d 7f 3d 3a 79 bc 3d ba f5 3a 3d 87 56 17 3e
       0.062360443 0.0920281 0.0456445 0.14779101
0000c0 6e 55 50 bc 67 98 e5 3d 5a 7e 83 3d 87 84 e1 3b
       -0.0127156805 0.11210709 0.06420584 0.0068822536
0000d0 c3 1b 0c 3e 45 8f 1d bd ea c5 15 3e e6 da 5a 3d
       0.13682465 -0.03846671 0.1462628 0.053431414
0000e0 14 00 d4 3b 8d fa 5d 3c 7e 7d 7a 3d d1 21 69 3c
       0.006469736 0.0135485055 0.061154835 0.014229254
0000f0 76 96 47 3c b9 93 d7 3d e8 bc f1 3d 86 0f a3 bc
       0.012181869 0.10526223 0.11803609 -0.019904863
000100 b6 a1 7d bd 88 18 5d bc fc f4 1e 3d 52 58 d4 3d
       -0.061921798 -0.013494618 0.038807854 0.10368408
000110 64 8c 44 3d 88 2a 29 3d a4 1e c3 bd 32 ec 6a bd
       0.04798545 0.041300327 -0.095273286 -0.05735416
000120 b0 bd 70 3d 7a 98 38 bd 4c 2b a8 3d 49 d5 9c bd
       0.05877465 -0.045067288 0.08211383 -0.076578684
000130 54 cc 86 3d 13 c9 6a bd 3a ff 92 bd 6a 73 98 bd
       0.06581941 -0.057320666 -0.07177587 -0.074438885
000140 68 a5 bf 3a 8c 99 fb bd cf c5 f8 bd 26 71 eb bc
       0.0014621438 -0.12285146 -0.12147104 -0.028740477
000150 68 4e 36 3b cc 40 39 bd fe cb 58 bd c4 94 97 bc
       0.002781773 -0.04522781 -0.052928917 -0.018503554
000160 60 b0 9d bc 69 e6 ff 3c d8 3c 06 bd 00 e3 ff bb
       -0.019249141 0.031237798 -0.03277287 -0.007809043
000170 42 c0 02 bd 5a 93 00 be e8 f4 96 bd 13 46 80 bd
       -0.031921633 -0.1255621 -0.07370931 -0.062633656
000180 c7 9e 8a 3e 0f 26 09 3d 72 aa a1 3d 92 ad e7 3d
       0.27074262 0.03348356 0.07893838 0.11312403
000190 59 6f 3b 3e b6 6e 07 3e b9 e0 eb bc fe 20 91 bd
       0.18304195 0.13225827 -0.02879368 -0.07086371
0001a0 a4 f6 0d 3e cf a6 bd 3d b5 ce 6b bd 14 ff 5a bd
       0.13863617 0.09260332 -0.057570178 -0.053465918
0001b0 03 8b 58 3d 6a bb 7c 3d e2 a7 cd bc 01 11 e3 bd
       0.052866947 0.06170217 -0.025104467 -0.110872276
0001c0 03 2a 2f 3e f6 4f 89 3d 45 4f 82 3d 0c cc 43 3d
       0.1710587 0.067047045 0.06362776 0.047802016
0001d0 e9 de 51 bd eb 46 86 3d 6c 3c 26 3e d4 5e 03 3d
       -0.051237974 0.06556495 0.16233987 0.032072857
0001e0 dc 15 03 3e fe 11 87 3c 4f 99 49 bd cf dd d4 3a
       0.12801307 0.016488072 -0.049218472 0.001624042
0001f0 82 e6 fa 3d 2d 65 7c 3d d3 4f 93 3c 5d 52 05 3d
       0.12250997 0.061619926 0.0179824 0.03254925
000200 86 f8 ef bc 84 26 62 3d 91 7a 33 bc 1e 64 dd 3d
       -0.02929331 0.055212513 -0.010954515 0.108101115
000210 0e 30 1a bd 1a 89 26 3e 40 bf 99 3d e5 a5 b4 3d
       -0.037643485 0.16263238 0.07507181 0.08820704
000220 bc 5e 07 3e 05 ba 69 bb bd 9a ee 3c a3 1b 24 3e
       0.13219732 -0.0035663855 0.02912652 0.16026168
000230 c2 ef 12 3e 3f 2d 40 bc 7c 01 eb bc d2 e8 36 bc
       0.14349273 -0.0117295375 -0.028687231 -0.011163907
000240 88 d9 71 bc a9 e3 e1 bd f8 9d 71 3d 5e 65 e2 3d
       -0.014761336 -0.11029751 0.05898854 0.110544905
000250 70 04 0a 3c 18 58 b8 3d de 27 34 bd e6 4b 7a bd
       0.00842391 0.090011775 -0.043983333 -0.06110754
000260 00 00 a6 3a 00 4c 92 bb 30 cf ef 3c df 85 8e bd
       0.0012664795 -0.0044646263 0.0292736 -0.06959128
000270 40 1d 61 3d 28 6a 38 3c 75 4c b2 bd 84 f5 b1 bc
       0.054959536 0.011255778 -0.08705989 -0.021723516
000280 58 75 68 bd b4 d6 52 3d 90 3a c2 bd dc 74 b4 3d
       -0.056752533 0.051474288 -0.09483826 0.08811352
000290 00 08 0d bd 38 20 44 3d 7c 6b b3 bd 8a 7e 15 bd
       -0.034431458 0.04788229 -0.087607354 -0.03649763
0002a0 28 a2 48 bc 66 4b 23 bd 14 18 1f 3d 18 d5 16 bd
       -0.012245692 -0.039866827 0.038841322 -0.036824316
0002b0 40 af ee bb c4 fb 94 bd 5c 96 e4 bd 3c 97 f0 bc
       -0.007284075 -0.07274583 -0.11161491 -0.02936899
0002c0 76 bf 97 bd 50 23 bc bd 14 9b ab bd 16 7d 88 bd
       -0.07409565 -0.09186423 -0.08379188 -0.06664483
0002d0 b3 a3 7f bd 8e e8 e3 3d ca 9b 81 bd 30 84 5d bc
       -0.062411975 0.11128341 -0.063285425 -0.0135202855
0002e0 96 00 44 bd c6 f0 c1 bd b8 8f 5d bc 60 ba a7 3d
       -0.04785212 -0.09469752 -0.013523035 0.08189845
0002f0 7c 65 7e 3d e6 27 1e bd 18 fc eb bc d4 f1 c1 bc
       0.0621085 -0.03861227 -0.028806731 -0.023674883
000300 1a d6 9c 3d d0 56 f2 bc 0e 68 6a bd bc 15 35 3d
       0.07658024 -0.029582411 -0.05722814 0.04421018
000310 80 86 e9 ba f3 29 4b bd 00 a4 f2 38 ea 0a 99 3d
       -0.0017816573 -0.049600553 0.000115700066 0.07472785
000320 d2 05 cd 3d f4 2d bf bd b8 42 30 3c f3 4f d7 bd
       0.10010876 -0.09334937 0.0107580945 -0.10513296
000330 1e a2 8b bd 04 58 6c 3d e6 a1 43 bd 70 d4 3e 3d
       -0.06818031 0.057701126 -0.04776182 0.046589315
000340 54 1d 08 3d d6 02 9c bd 28 13 c5 3d 8c 00 12 3d
       0.033231094 -0.076177284 0.096227944 0.035645053
000350 a0 66 21 3d 96 7e 92 bd 63 f6 a8 bd a6 9c b3 3d
       0.03940451 -0.071530506 -0.082501195 0.08770113
000360 64 4c c7 bc 20 a7 0c bb 90 ba 46 3c 08 21 b2 3c
       -0.024328418 -0.002146192 0.012129441 0.021744266
000370 f8 c4 9b bc 80 ae 8c 3c a8 ee ee bc 9c bb 73 3d
       -0.01901482 0.017173052 -0.029166535 0.05950509
000380 e8 66 a3 bd 42 e5 3c bd ac f9 28 bd 08 cb c4 3d
       -0.07978612 -0.046117075 -0.04125373 0.09609038
000390 6c 82 c6 bc d0 9b 53 bc 5c 63 7b 3d da 39 ca 3d
       -0.024232112 -0.012915567 0.061374053 0.098743156
0003a0 eb 97 dd bd c8 ff 1b bc a8 32 09 bd 58 98 bf 3c
       -0.10819992 -0.009521432 -0.033495575 0.023388073
0003b0 40 7d 93 3d 2e ce a7 3d 0c ae 41 3d 34 b0 a3 3d
       0.07201624 0.081936225 0.047285125 0.079925925

conv3.bias f4 [3]
000000 64 e7 b0 bf 07 24 6f bf 72 cf a6 bd
       -1.3820615 -0.9341435 -0.08145036

conv4.weight f4 [3, 1, 5, 5]
000000 18 92 9d 3d ca 5f 44 3c b8 b6 36 bd 90 43 7b 3e
       0.07693881 0.0119857285 -0.044607848 0.24537492
000010 b3 19 79 3e 07 a2 cd bc e5 72 04 bd 28 c8 4a bb
       0.2432621 -0.025101675 -0.032336134 -0.0030942056
000020 cc dd 81 3e 1f 2e 85 3e a2 1d ac bd 84 62 04 be
       0.2536453 0.2601175 -0.084040895 -0.12928206
000030 a4 67 0b 3c dc 75 d7 3d 1f fe 6b 3d c0 a3 6a 3d
       0.008508597 0.10520527 0.057615396 0.05728507
000040 ab e8 08 3d 20 0c 25 bc 36 45 86 3e 58 e7 8f 3e
       0.033425014 -0.010073692 0.2622468 0.2810619
000050 6a 57 34 3d b0 99 c0 3d fe 39 07 3d e9 2e 70 3e
       0.044028677 0.094043136 0.03301429 0.23455395
000060 27 2c 8b 3e 43 1f 69 3e c3 a3 98 3e 6b 85 7f 3d
       0.27182123 0.22765832 0.2981244 0.062383097
000070 38 a3 9c bd 74 9b 36 bd 7f 80 ba 3e fd 85 b4 3e
       -0.07648319 -0.044581845 0.3642616 0.35258475
000080 bd b9 03 3a e9 85 f1 bd fa 69 ca bd 2b d5 04 3e
       0.00050249306 -0.117931195 -0.09883495 0.12971942
000090 cb b8 5b 3e f4 94 5e 3b 58 ee 2d be 39 3b c8 bd
       0.21457212 0.0033963295 -0.16985452 -0.09776921
0000a0 15 4d 5e 3e be 1f 6f 3e 29 c9 b1 3c f4 bb f4 bd
       0.21709092 0.23351952 0.021702366 -0.11949912
0000b0 22 f7 03 be 14 96 89 3e 3a 7e 22 3e 94 3b 79 bd
       -0.12887242 0.26872313 0.15868464 -0.060847834
0000c0 73 ab 53 bd a2 22 a9 bd e1 bc 32 3e 14 89 4a 3d
       -0.05167718 -0.08258559 0.17454864 0.049447134
0000d0 40 c6 de bd 31 92 16 3e ea 56 e8 3d ca 20 27 be
       -0.10877657 0.14704205 0.113447025 -0.16321102
0000e0 fe 7d 28 be d7 b9 19 3e 8f 91 3f be 75 43 35 3e
       -0.16454312 0.15012299 -0.1870787 0.17701514
0000f0 1d c4 0d be 07 00 22 3e 56 75 8a 3d a1 6c 19 3e
       -0.13844343 0.15820323 0.06760661 0.14982845
000100 93 f5 25 3e 06 03 8c 3d 89 db 3f 3e a0 e9 01 3c
       0.1620696 0.06836514 0.1873609 0.007929236
000110 98 d7 93 bc 90 ac 02 be f2 12 97 3d f3 ae 18 be
       -0.018047139 -0.1276114 0.073766604 -0.14910488
000120 ae 1c bf 3d 5a e5 87 3d 50 56 53 bc
       0.09331642 0.06635542 -0.0128989965
