nn-model-v2-1.pth (torch, 271375 bytes, 7 tensors)

conv1.weight f4 [32, 1, 5, 5]
00000000: 86f4 8fbd 7466 66bd 7310 4fbe 4a6c ee3d
00000010: 0570 4dbe 717b 6dbd 67ef 833d b08d 6bbe
00000020: f3a8 85bd 909f 1abe 35aa 063e fe92 7cbe
00000030: cc69 3e3d 1ab1 223d 88ee 8cbd 5176 3bbe
00000040: 34d8 29be bbd9 3dbc 4a73 63be 2ea2 0d3e
00000050: ec37 1fbe 980b 04bd ccbd 36bd 11bc bebd
00000060: c0ab 8dbd 95c8 70be 89c8 15be 59f1 7dbe
00000070: c029 9dbd 9103 9dbd 60a7 003e e3b6 123e
00000080: dc85 a4bd 36a5 cabd fb11 3dbe dc34 37bc
00000090: 4273 05be c974 48be 5d97 363c e6f3 f93d
000000a0: 455a c3bd 4f5e b23d 70ef bc3c 1d34 4dbe
000000b0: 4076 24be 29cd 9bbd 3cdc dcbd a807 71be
000000c0: adae 833d 1153 003b 5086 dd3c 31ce 663d
000000d0: 6694 b43d 4763 2abd 5dcf 35bd 8e81 22bd
000000e0: 59e3 44bd bf76 883b 2aa0 22be e340 063e
000000f0: 2a1f 70be fa4d c6bc 2de1 003e da15 12be
00000100: 5c46 363e b4f7 9b3c 301b 2c3e ca5b ed3b
00000110: fda2 6abd 5817 f33d f4b2 fdbc 807b dc3d
00000120: 5aff 90bd 7afb 173e 5d5e cabd f957 67be
00000130: d001 783c 9845 77be ed59 16bd d938 c23c
00000140: 673d 033d 6383 fdbd 67ba 2ebe 9a7d 86bc
00000150: e056 07bd 2c30 eebd b59b b7bd 1b90 e13d
00000160: cb2d 5dbd c378 7a3d 9b0c 65be 45eb ee3d
00000170: 4e77 61bd 7741 693d 171a 53bd b68f e13d
00000180: a822 72be dc56 033e 9e5c 3abe ca28 f03b
00000190: 3aba 1b3d 5dba d4bd 35ed 02be a476 2bbe
000001a0: 772f e0bd 99e6 18be 921a e2bd 5d44 a43b
000001b0: db14 b13c 2ae7 e43b 5db2 2dbc f8d6 773b
000001c0: 8a20 debd 8770 2ebe 7e15 ef3d f6ae 5bbe
000001d0: 1905 013e d089 edbd 9fcd dabd 68a3 b2bd
000001e0: ceb1 0abe 5ba4 74be 90de 153e 2743 32be
000001f0: dc7b b1bd ca32 983e d830 f9bd e92d 9f3c
00000200: 0805 65be fc3a 833c d741 933d 244a f33d
00000210: 273b aa3d 57d2 603d b43e 6a3e c7f4 f6bd
00000220: d63e d53c 7b47 833c 5350 88be 04ec 0d3e
00000230: c826 9cbd 64b8 4fbd fb45 7fbd 0ba6 8e3d
00000240: 0e95 89bd f074 8cbd 7707 df3d 9a64 9bbd
00000250: 61d2 1ebe f042 fa3d dd78 bb3d 018d 27be
00000260: dd1b abbd 188b 2b3d b678 233c f6de 4b3e
00000270: 2ee0 e73d 113b 7abe b0d2 883e 7e28 97bd
00000280: b8e8 9cbd 961c e8bd d916 4cbe 832a c33d
00000290: 2387 243b 57ff 503e 3d3c abbb c310 9dbe
000002a0: 8ee4 6a3e d70e b73d 713b 9d3d 0ae0 1b3d
000002b0: 35c8 b1be 9830 8b3e 80cc e9bd 4431 17be
000002c0: 4f4e ddbc 4cd3 a2bd 7561 69be c214 56be
000002d0: 2c01 3bbe 2d06 7fbd c7b7 1ebe 5ae2 883d
000002e0: 42a1 b4bb 862f 4a3d fa86 b53d b942 ddbc
000002f0: 3695 5cbe a093 04be eb96 1fbe 315d 05be
00000300: cf38 463d 652d e2bd 562b f43d c845 e93c
00000310: 20bc 19be 4e42 b83d 2858 dabd f658 80bc
00000320: 5788 2d3d 70c0 d6bd 917c 113e eda9 4ebd
00000330: bff4 fd3d bbd1 0a3d 42c7 223e bc6d 9fbd
00000340: 9875 e9be 91cd 263e 9527 8dbd ae2b 95ba
00000350: ce7c a7bc ede8 93be 6335 6f3e c7d1 a3bb
00000360: 6e86 193e 8304 433d bce4 5ebd 09ed 0c3e
00000370: a5dd 2c3d 892a a7bd dc9f 5d3d dff8 47be
00000380: 307e b33d 2793 00be 41af e43d 115f a13e
00000390: 00cc 2c3e de2c 303e acf2 12be 07e1 92be
000003a0: 9268 85be ce3b 5ebe a594 2b3e cf1c dcbe
000003b0: bbef a0be fc3b 08bf 4e38 98be 3b54 af3d
000003c0: 7745 ccbe 952a 79be fd9f f7bd d446 e93d
000003d0: 4e5d 6dbd d991 15be 05dc c03d c494 d33d
000003e0: 5b69 46bc f843 47bc e24b 6d3d 51b5 4bbd
000003f0: 90a3 173e 5eb8 65be 8ae8 e4bd 4c79 ac3d
-0.07029061 -0.05625005 -0.20221119 0.11641748 -0.20062263 -0.05797905 0.06442147 -0.23003268
-0.06526365 -0.15099931 0.13150866 -0.24665448 0.046487615 0.03971968 -0.06881434 -0.18306853
-0.16586381 -0.0115875555 -0.22211948 0.13831398 -0.15548676 -0.03223762 -0.0446146 -0.093132146
-0.06917524 -0.23514016 -0.1462728 -0.24799098 -0.07673979 -0.07666696 0.12563848 0.14327578
-0.08033344 -0.09894793 -0.1846389 -0.011182036 -0.13032249 -0.195758 0.011144486 0.12204723
-0.09538702 0.08709394 0.023063391 -0.20039411 -0.16060734 -0.076074906 -0.10784194 -0.23538077
0.06429801 0.0019580761 0.027041584 0.056348983 0.08817367 -0.041598585 -0.04438721 -0.039674334
-0.048068378 0.0041645463 -0.1588141 0.1311069 -0.23449388 -0.024207104 0.12585898 -0.14266148
0.17800277 0.019039012 0.16807246 0.007243608 -0.057284344 0.11869687 -0.03096912 0.10765743
-0.070799544 0.14842024 -0.098812796 -0.22592153 0.015137151 -0.24147642 -0.036706854 0.023708748
0.03204098 -0.12378576 -0.17063294 -0.016417313 -0.033041835 -0.11630282 -0.08965246 0.11013814
-0.05399875 0.061150324 -0.2236809 0.11665968 -0.05504542 0.056947198 -0.051538553 0.11013739
-0.23646033 0.12826103 -0.18199393 0.007329081 0.038019396 -0.103871085 -0.127858 -0.16744477
-0.10946553 -0.14931716 -0.11040224 0.0050130324 0.02161639 0.0069855647 -0.010601607 0.003781734
-0.1084605 -0.17035113 0.11674021 -0.21453461 0.12599601 -0.11598551 -0.1068375 -0.087225735
-0.1354439 -0.23890822 0.14635682 -0.17408429 -0.086662024 0.2972625 -0.12167519 0.019431071
-0.223652 0.016019337 0.07190292 0.118793756 0.08312064 0.054888096 0.22875482 -0.12058406
0.02603094 0.016025295 -0.26623783 0.13859564 -0.076245844 -0.050712958 -0.062322598 0.06965264
-0.06717883 -0.068582416 0.10890096 -0.075875476 -0.1550994 0.122197986 0.09153912 -0.16362382
-0.08354924 0.041880697 0.00997751 0.19909272 0.11322056 -0.24436595 0.26723242 -0.0738077
-0.07661575 -0.11333577 -0.1993059 0.09529593 0.0025104962 0.20409904 -0.005225687 -0.3067685
0.22938749 0.08938377 0.07677353 0.038055457 -0.34723058 0.27185512 -0.114159584 -0.14764887
-0.02701488 -0.07950458 -0.22791083 -0.20906356 -0.18262166 -0.06226175 -0.15499793 0.06683798
-0.0055123875 0.049361728 0.08863635 -0.027009355 -0.21541294 -0.1294694 -0.15584914 -0.13023831
0.04839402 -0.110438146 0.11922328 0.028475657 -0.1501317 0.089970216 -0.10661346 -0.01566742
0.042366352 -0.10485923 0.14207675 -0.050455023 0.12400197 0.03389142 0.15896323 -0.07784602
-0.4559753 0.16289355 -0.06892315 -0.0011380815 -0.020445254 -0.28888646 0.23360209 -0.0049993726
0.14992687 0.047611725 -0.054417357 0.13762297 0.042203564 -0.0816241 0.054107532 -0.1952853
0.08764303 -0.12556134 0.111662395 0.31517842 0.16874695 0.17204615 -0.14350384 -0.28687307
-0.26056343 -0.21702501 0.16755922 -0.4299073 -0.314329 -0.5321653 -0.29730457 0.085609876
-0.39896747 -0.2433265 -0.12091062 0.113904625 -0.05795031 -0.14606418 0.094169654 0.10331109
-0.01211008 -0.012162201 0.057933696 -0.049733464 0.14808488 -0.22433612 -0.11177166 0.08421573

conv1.bias f4 [32]
00000000: 380d 873d 5a70 cd3d a1a6 b0bf 0f9b d33d
00000010: 53f1 fcbd 9f7e 68be 2167 c4be 469c c2bd
00000020: 76ca 78bf f12b 2ebe 63a9 b4bd a568 0f3e
00000030: 6ace 9cbd b9e5 0abd a41f bdbd 5583 373e
00000040: 857c 56be ce04 953e c0e4 c0bd ca4b 3bbe
00000050: 588a ef3d 89e2 89be d9b3 783f ce96 593c
00000060: da7a 4dbe 0cfb 1dbf 4226 8d3b f9fe 213d
00000070: aad0 ccbd b1be 21bc 0563 083e 61b7 dd3d
0.06594318 0.10031195 -1.3800851 0.103323095 -0.123507164 -0.22704552 -0.3835993 -0.09502463
-0.9718393 -0.1700895 -0.088213705 0.14004762 -0.07656558 -0.033910487 -0.092345506 0.17921193
-0.20945938 0.29105228 -0.094186306 -0.1829063 0.11696309 -0.26930645 0.97149426 0.013280584
-0.20066395 -0.6171119 0.004307539 0.0395498 -0.10000737 -0.0098721245 0.13319023 0.108259924

conv2.weight f4 [64, 32, 4, 4]
00000000: 356c b1bc 50d4 9e3b dc1d 2a3c 3d3f 01bd
00000010: 187e 89bc 3a07 ea3c 9823 6b3c fb14 0a3d
00000020: 8cd6 28bc 7c26 fabc a683 cfbc 2010 0dbd
00000030: f017 7bbc 31be a2bc 3039 a6bc 00f1 83b9
00000040: 401f 32ba 91fd 9bbc 690d 89bc ef5c b6bc
00000050: 9103 2cbd f048 18bc e045 94ba 8c62 0d3c
00000060: 30dd 833b 673f 22bd c0a4 9a3a 9ca3 483c
00000070: 7e5d 9d3c 341a 07bc 281f 4abc 8a95 d23c
00000080: 817b d3bd 0182 cbbd 79e2 6ebd 145c 6dbd
00000090: b3ce 94bd 8a24 d7bc 1a98 d7bc 05cf 13bd
000000a0: fd83 5dbd 926e 06bd 197c a6bd f6de b4bd
000000b0: c2cd ccbc 4335 84bd 05d2 34bd 08df 89bd
000000c0: a617 0fbd e2fa 8abd fbf0 a3bc 9b69 d3bd
000000d0: 0d8e d0bd 47f6 04bd 177d f2bc d79f aebd
000000e0: 4520 8cbd 39ee 88bd b680 a5bd 38eb a1bd
000000f0: 9d5b b6bd 0e16 0dbd 57c3 abbd 39fe a9bd
00000100: ffd3 2ebd 5e3d 9fbc 4e57 913c a941 293d
00000110: cc5f 453c be34 d03c be22 cf3c 508d 40bb
00000120: a443 20bc b6c9 f0bc 339e 233d 4036 3cba
00000130: eb28 11bd b08a 45bc 50c5 b8bc 8e02 b33c
00000140: a69b b7bd 6713 9abd a542 b1bd 0a3d 6fbd
00000150: 5c43 3bbd ac45 f6bc 4608 a4bd 7df2 25bd
00000160: 0137 5dbd 5617 a6bd 8e77 7bbd 444c b5bc
00000170: 983d edbc 514b 05bd c832 7ebd c658 d3bd
00000180: 3be3 8bbd 0df3 c1bd 8bcb 34bd 275b 9abd
00000190: 12f0 28bd cb98 1abd ff9a 85bd 202c 9dbd
000001a0: 3938 afbd 164a 7fbd 7fef c0bd 4806 1fbd
000001b0: f4d2 ecbc 6dfb bdbd a69d b1bc 95d4 95bd
000001c0: de92 ccbd a704 9dbd 2822 41bd a27d a7bd
000001d0: 5b57 a9bd a0fc bbbd 71c5 b4bd e1c3 63bd
000001e0: 8496 bcbc f1e8 cdbd bf5e e3bc e63d bbbc
000001f0: 4cb7 a5bd f4bd 86bc e9bf 92bd 4b0c a2bc
00000200: e0e7 8cbd 316a 2ebd 26c3 53bd 190c 90bd
00000210: df95 a6bd 851e 9abd d74e 27bd 285d 0cbd
00000220: ae17 69bd aaa6 45bd 5c2b a1bc da37 c1bd
00000230: f42f 32bd 0037 93bd eb71 a4bd d870 49bd
00000240: de32 c73d 53a9 c1bd 2fc3 6cbd aed5 45bd
00000250: 6a60 943d 50bb 8a3d f985 e3bc 051e 9fbc
00000260: d6c6 0d3d c273 9d3d 0456 e9bc e919 8abd
00000270: edb2 f43c 8199 a93c 2c67 98bd e9f0 cabd
00000280: 8044 9a39 1c9b 07bd 802e f23b 5923 123d
00000290: 62d3 f43c 3a73 a63c cb80 0dbd 2317 0a3d
000002a0: f4d8 41bc 406f 843c 1079 89bb 6264 d23c
000002b0: 0845 e23b aee0 c23c 6533 a7bc 9c13 9abc
000002c0: baa3 a63c a8af 063c e023 fb3b 5a94 75bc
000002d0: 92b9 8fbc 42f2 c2bc 16c4 29bd 30c8 583c
000002e0: 1491 1d3c d45c 903c 4f64 34bd c5c2 c9bc
000002f0: dd08 bdbc dfb3 1c3d 86a2 c33c 4b73 073d
00000300: 9a4f c0bd 41ea 2fbd df0b 89bd 549e babd
00000310: d406 92bd 3cd3 22bd d8ed 2dbd fb4d 8bbd
00000320: 3230 9abd 679c 35bd eb79 42bd 0afa 8abd
00000330: bab2 c7bd 2313 75bd 5089 b0bd 8cb0 93bd
00000340: f714 b1bd 61c2 b0bd 822c 0ebd 4584 b7bd
00000350: 687d 95bd 01a7 bcbd ee15 b9bd b089 82bc
00000360: f66f 5fbd 8bff 6bbd 0e01 bbbc ca80 e9bc
00000370: 6c4f 78bd 6012 95bd f7ab 99bd 3696 2ebd
00000380: 915d 2bbd 60a1 0bbb 60e1 b1bb 5dfb d7bc
00000390: 9824 99bc b4fb 003c ce8e cebc e63d ec3c
000003a0: 3c06 0e3c 3024 4abc 18b3 30bc 8004 bdbc
000003b0: 707f 163c f680 03bd 8810 843c 312c c2bc
000003c0: 2330 89bc ea8b b53c 4c13 24bc da36 da3c
000003d0: bdc2 023d 144c a9bc 802f d63a 005a b7b8
000003e0: 0f22 2b3d cd1e 343d 80de 543a d64a 903c
000003f0: fa7a e8bc 4575 233d aded a6bc 40d2 033a
-0.021658042 0.004847087 0.010383096 -0.03155445 -0.016783759 0.028567899 0.014351748 0.033711415
-0.010305058 -0.030535929 -0.02533133 -0.034439206 -0.015325531 -0.019866081 -0.020290941 -0.00025165826
-0.0006794818 -0.019041808 -0.016730027 -0.022261111 -0.04199559 -0.009294733 -0.0011312328 0.008629452
0.0040241703 -0.039611246 0.0011798367 0.012246039 0.01920962 -0.008245993 -0.01233653 0.025706071
-0.10326291 -0.09936906 -0.05832145 -0.05794914 -0.07265987 -0.02626254 -0.026317645 -0.0360861
-0.054080952 -0.03282029 -0.081291385 -0.08831589 -0.025000457 -0.06455471 -0.044145603 -0.06731993
-0.034934662 -0.06786133 -0.02001237 -0.10322877 -0.10183344 -0.03246143 -0.029600663 -0.08526581
-0.068420924 -0.06686062 -0.0808119 -0.079061925 -0.089041926 -0.03444486 -0.083868675 -0.08300442
-0.042682644 -0.019438442 0.017741825 0.041322384 0.012046766 0.025415774 0.025285121 -0.0029381104
-0.009781752 -0.029393058 0.039945792 -0.0007179715 -0.035439413 -0.012056991 -0.022555023 0.021851804
-0.089652345 -0.07523232 -0.086552896 -0.05840782 -0.045718536 -0.030062519 -0.080093905 -0.040514458
-0.054007534 -0.0810992 -0.061393313 -0.022131093 -0.028960034 -0.03254253 -0.062060148 -0.103196666
-0.0683045 -0.094701864 -0.044139426 -0.07536917 -0.041244574 -0.03774337 -0.06523704 -0.07674432
-0.085556455 -0.062326513 -0.0942068 -0.03882435 -0.028909184 -0.09276471 -0.021681618 -0.073159374
-0.0998895 -0.07666903 -0.047151715 -0.081782594 -0.08268615 -0.09179044 -0.088267215 -0.055606727
-0.02302099 -0.10054196 -0.02775514 -0.022856664 -0.08091602 -0.016447999 -0.0716551 -0.019781252
-0.06880164 -0.04258174 -0.05169978 -0.070335574 -0.081340544 -0.075253524 -0.040846672 -0.03426853
-0.05690735 -0.048254646 -0.019673996 -0.09434481 -0.043502763 -0.07188225 -0.08029541 -0.04917988
0.09726499 -0.09456124 -0.05780333 -0.048299484 0.07244952 0.06774008 -0.027773844 -0.019423494
0.034613453 0.07688095 -0.028483398 -0.06743223 0.029870475 0.02070308 -0.074415535 -0.09909231
0.00029424205 -0.03310691 0.007390797 0.03567824 0.029885951 0.020318616 -0.034546655 0.03371347
-0.011831511 0.01616633 -0.00419534 0.025682632 0.006905202 0.023788776 -0.020410249 -0.018808179
0.020341743 0.008220591 0.0076641887 -0.014988983 -0.017544542 -0.023797158 -0.041446768 0.013231322
0.009617109 0.017622389 -0.044040974 -0.024629006 -0.023075515 0.038257476 0.023881208 0.033068936
-0.09390183 -0.04294801 -0.06691717 -0.0911223 -0.071302086 -0.03975223 -0.042463154 -0.06801983
-0.07528724 -0.04433861 -0.04747955 -0.067859724 -0.09750886 -0.059832703 -0.0861994 -0.07211408
-0.08646577 -0.08630825 -0.034710415 -0.08960775 -0.0729931 -0.09211541 -0.09037386 -0.015934795
-0.054550134 -0.05761675 -0.022827651 -0.028503794 -0.060622618 -0.072788954 -0.07503503 -0.04262372
-0.04183728 -0.0021305904 -0.005428478 -0.026364977 -0.018694207 0.007872511 -0.025214579 0.02883811
0.008668479 -0.012337729 -0.010784887 -0.023073435 0.009185657 -0.03210541 0.016121164 -0.023702713
-0.016746586 0.022161443 -0.010014366 0.026637483 0.031924 -0.02066616 0.001634106 -8.742884e-05
0.041780528 0.043974686 0.0008120313 0.01761381 -0.028378952 0.03990676 -0.020377005 0.0005028583

conv2.bias f4 [64]
00000000: 2725 aabd 2725 51bd e14f 46bd 1519 3dbd
00000010: 5c89 03bd 2085 a4bc 7055 82bd c29c cdbc
00000020: 80a6 16bd 3c40 9fbc ee8b 92bd 064d febc
00000030: 4885 a5bf 2357 2abc 1cab 79bd ae79 2ebd
00000040: b27a fcbc b123 5b3d 929d 70bd 3a2a 85bd
00000050: b546 80bd 480c afbc dd84 9fbd 7750 aabd
00000060: dc88 9cbd c1dd 6dbd c098 a8bd c202 8c3d
00000070: 96e9 29bd 1fcc 3abd 5d7f fabc 7b4f a0be
00000080: 60fd abbd b7fc acbd efbb 4bbd 831d f6bb
00000090: a98e 88bf 8cdd 8bbd 1600 8fbd 24d8 b1bd
000000a0: eb91 c6bc ebc2 b5bd 9ded 99bf f97f 0cbe
000000b0: bb6c dabe 1c15 abbd 09bc 08bd a2ee 32bd
000000c0: 3909 60bd 8f00 14bd d69e 12bd c481 2cbd
000000d0: f454 c6bd 4cd8 83bc ae56 9fbd 767d d8bc
000000e0: 9a64 1cbd 1e38 a2bd 03ce 46bd 7cb1 3ebd
000000f0: 5356 3cbd bc50 e0bc 843d 9cbd 5a53 94bd
-0.083078675 -0.05106082 -0.048416022 -0.0461665 -0.032113418 -0.02008301 -0.06363952 -0.025099162
-0.03677988 -0.019439809 -0.07155596 -0.031042587 -1.2931299 -0.010396752 -0.0609542 -0.04259651
-0.030820224 0.053500835 -0.05874402 -0.06502195 -0.06263486 -0.02136816 -0.077890135 -0.08316129
-0.07643291 -0.05807281 -0.0823226 0.068364635 -0.04148253 -0.04560482 -0.03057831 -0.3131064
-0.08397937 -0.08446639 -0.049739774 -0.0075108423 -1.0668536 -0.06829366 -0.06982438 -0.08683804
-0.024239501 -0.08875068 -1.2025639 -0.13720693 -0.4266108 -0.08353636 -0.03338245 -0.04368461
-0.054696295 -0.036133345 -0.03579601 -0.04211594 -0.09684172 -0.01609435 -0.07780205 -0.026427012
-0.03818188 -0.0792086 -0.04853631 -0.04655598 -0.045980763 -0.027382247 -0.07628921 -0.072424605

conv3.weight f4 [32, 64, 4, 4]
00000000: c096 aa3b b052 ef3b 5866 5e3c 7814 5fbc
00000010: 2670 9ebc 30aa f7bb 3c09 07bc 5c0c 6a3c
00000020: 849b e7bc c888 05bc 46e6 ea3c 8e66 ef3c
00000030: 1c53 38bc f854 3fbc 14a8 653c e869 b93b
00000040: f1be 69bd 58c5 94bd eb41 68bd f218 c1bc
00000050: 6642 18bd b062 0dbd 9b4c 16bd 36b8 4bbd
00000060: 8cae 91bd 7283 debc d9b8 98bc 0776 b4bc
00000070: dd23 83bd 2c7f 3bbd 7d2b 20bd 1688 c9bc
00000080: da76 e03c 05e7 313d 992f 573d 13e7 4d3d
00000090: 4102 613d 281d 723d 6605 a03d 08ef 563d
000000a0: 8527 853d 3218 e63c ff5c 7a3d 7c80 f73c
000000b0: 9018 1f3d 6c4d 793d d2ca 223d 8941 003d
000000c0: 7fba 263d 4f57 423d 6a65 953d 0012 203d
000000d0: ec26 963d 3154 933d 139f 2a3d 4962 4a3d
000000e0: d365 203d 75eb 8e3d d843 9e3d f5ef 2f3d
000000f0: b423 743d 662a 5b3d 6f92 8b3d 6d57 883d
00000100: 3645 833c 3aa2 8cbc b02f 53bb 72d3 d33c
00000110: 1a8d aabc 3cbd 543c 0888 013c 7817 a33b
00000120: fae9 97bc 80ef 3bbc b602 c9bc 5454 96bc
00000130: ca11 dc3c 485d d43b d0ba 96bb 4087 d9bb
00000140: dad2 debc e468 4cbc 7800 a63b 68bb debb
00000150: 4048 91ba 840c c6bc c46f 293c 2a27 90bc
00000160: b66e b1bc 50c4 a7bc b841 c6bc 40ed 273a
00000170: 3875 c0bc a860 abbc c432 873c 9c52 4abc
00000180: 4c53 70bc c0ea e33c 941f 20bc f247 953c
00000190: 0019 fd3c 98e9 913b e033 a1bc c0de 1d3a
000001a0: e896 e9bb 9ccb 1f3c a809 86bc a451 94bc
000001b0: 4c8f 31bc f80f b93b 9ca7 74bc 5475 83bc
000001c0: 1150 723d f584 383d 0a28 073d 1708 a13d
000001d0: f761 ab3d f6ec 3d3d 0c95 7d3d b0fb 533d
000001e0: 301a 523d beab 763d 7fca f53c c0fa 993d
000001f0: cd8a 693d db4f 553d 9c2b f83c cf93 8a3d
00000200: 9ec1 82bc e2df b93c 4830 15bc 2039 98ba
00000210: 7034 7dbb 9cb8 08bc 74cf 4e3c 3477 04bc
00000220: d644 d03c d49a 14bc 4cbf b4bc 5837 ea3c
00000230: ecc4 953c d277 c73c a41e 6c3c 8066 6d3b
00000240: 2c47 76bd 646a ddbc c26c cbbc 52c0 68bd
00000250: 272c 9abc d416 5abd 0935 28bd ed02 0fbd
00000260: 4aaa 95bd 0bb9 a2bc 5455 85bc be32 f1bc
00000270: 5438 93bd 35cc 46bd b206 82bd 8a3e 8ebd
00000280: 88bc 9fbb 5ebc 863c d04b a2bb a852 ed3b
00000290: 640a 66bc f0d2 e9bc f860 debc c481 073c
000002a0: ccbd 9d3c 3cd6 ccbc 6c33 cf3c c80d c3bc
000002b0: 9821 1ebc 502c f63c 4077 ebbc 0847 eebb
000002c0: e108 9d3d 9337 fb3c 594d 9f3d 5502 803d
000002d0: a70f 8f3d 2793 dc3c 5904 e03c 38ad 3b3d
000002e0: 50a3 533d 2428 513d fe29 a53d 9871 fb3c
000002f0: c149 243d 21e1 023d 3f71 753d 3bf0 993d
00000300: 5fe0 363e d39f 8ebb 5785 df3d 5133 cd3d
00000310: ec27 f03d b733 26bd 6f7b 053d 4ff7 1dbc
00000320: 83f8 433d 9ee5 ecbd 8ddc 4dbd 77ee 9dbd
00000330: 9715 453d 330a f2bb 9339 17bd 6e6e 15bd
00000340: 74d9 9c3d 0307 9e3d 28de 3c3d e891 1c3d
00000350: 5b09 1a3d 213d 913d 57b2 093d 061f 683d
00000360: 88da 343d c4ee 023d 6f92 493d af76 6e3d
00000370: ee94 a53d 66e7 7c3d 90ad 2a3d bed3 823d
00000380: 0867 6b3d 4d49 aa3d f051 283d d245 203d
00000390: 712c 473d 1cd0 3d3d 1685 853d 5594 1c3d
000003a0: f622 a13d 1ea5 083d d804 513d 70e7 c93c
000003b0: 7933 d53c 4c72 c73c 43a4 4a3d aae1 683d
000003c0: 47d6 6a3d cc2c a03d 7e0a 8a3d 9971 923b
000003d0: cdd2 5f3d 7e24 1e3b f90a be3b a42f 38bb
000003e0: a5fb 8b3d c21b 523c cf8b 323d 7842 b7bb
000003f0: 4dcc 8a3d 7401 9e3b 3f45 04bc e270 093d
0.005205959 0.0073035583 0.013574205 -0.01361572 -0.019340586 -0.0075581297 -0.008241948 0.014285173
-0.028272398 -0.008150287 0.028674256 0.029223707 -0.011250284 -0.011677973 0.014017124 0.005658377
-0.05706686 -0.07264203 -0.05670349 -0.023571465 -0.037172697 -0.034517944 -0.03669415 -0.049736224
-0.0711337 -0.027162287 -0.01864283 -0.022028936 -0.06403325 -0.045775577 -0.039103974 -0.024601024
0.027400423 0.043433208 0.052535627 0.050269198 0.05493379 0.059109837 0.0781353 0.05247405
0.065016784 0.02808771 0.061123844 0.030212633 0.038841784 0.06086485 0.039744206 0.0313125
0.0407052 0.047446545 0.07294734 0.039079666 0.073316425 0.071937926 0.04165561 0.04941014
0.039159607 0.069785036 0.07727784 0.04295345 0.05960436 0.05350723 0.06815039 0.066573
0.016024213 -0.0171672 -0.003222447 0.02585766 -0.020819236 0.01298457 0.0079059675 0.004977163
-0.018544186 -0.0114706755 -0.024537425 -0.018350758 0.026863951 0.0064808466 -0.0045999065 -0.0066384375
-0.027200151 -0.01247618 0.005065974 -0.006797243 -0.0011084154 -0.02417589 0.010341588 -0.0175968
-0.021659236 -0.020479351 -0.024201259 0.00064058974 -0.023493394 -0.020920113 0.0165037 -0.012348797
-0.014668297 0.027821898 -0.009773154 0.018222783 0.03089571 0.0044528954 -0.019678056 0.0006022267
-0.007128585 0.009753134 -0.016362026 -0.018105336 -0.010837387 0.0056476556 -0.014932539 -0.016047157
0.05915839 0.045048673 0.03299717 0.07862871 0.08368295 0.04636856 0.06190972 0.0517537
0.051294506 0.06022238 0.030003784 0.0751853 0.057017136 0.05207811 0.030294232 0.067664735
-0.015961464 0.022689763 -0.009105749 -0.0011613704 -0.0038635992 -0.008344796 0.012622703 -0.008085061
0.025423449 -0.009070117 -0.022063874 0.028590843 0.018282376 0.024349127 0.014411602 0.0036224425
-0.06012647 -0.02702827 -0.024832133 -0.056824036 -0.018819882 -0.053244427 -0.041066203 -0.0349149
-0.07307871 -0.019863626 -0.01627604 -0.029443141 -0.07188478 -0.04853459 -0.06348933 -0.06945522
-0.0048747696 0.016447242 -0.004952885 0.0072425194 -0.014040563 -0.028542966 -0.027145848 0.008270685
0.019255541 -0.025004499 0.025293075 -0.023810282 -0.009651564 0.030050427 -0.028743386 -0.007271651
0.07667709 0.030666148 0.07778425 0.06250445 0.06985407 0.026925636 0.027345823 0.04581949
0.05166942 0.05106367 0.0806465 0.030693814 0.0401094 0.03195298 0.059922453 0.075165235
0.17859028 -0.0043525486 0.109141044 0.100195535 0.117263645 -0.040576663 0.03258842 -0.0096414825
0.04784442 -0.115672335 -0.05025916 -0.07711499 0.048116293 -0.0073864697 -0.03692014 -0.036482267
0.076586634 0.07716181 0.046110302 0.038225085 0.03760658 0.070917375 0.033617344 0.05667021
0.04415372 0.031965986 0.049211916 0.058218654 0.08085047 0.061744116 0.04166943 0.06388043
0.057471305 0.08314762 0.041093767 0.039129086 0.048626367 0.046341047 0.06519525 0.038227398
0.078679964 0.033360593 0.05103001 0.02464649 0.02602552 0.024346493 0.04947306 0.056855835
0.057333257 0.07821044 0.067402825 0.0044691083 0.054644395 0.0024130638 0.005799648 -0.0028104568
0.06835107 0.012824001 0.043590363 -0.0055926405 0.067772485 0.0048219506 -0.00807315 0.03355492

conv3.bias f4 [32]
00000000: 117c b83e bd13 723f cacf 2dbd a8df d1bd
00000010: 6756 58bd 6dd1 67bd 9a89 a0bf 1f36 45bd
00000020: a816 93bd c89e 90bf e9bc 153f e416 7bbf
00000030: 7dc4 463d d58c 2cbd 7119 043f 585c 5abf
00000040: 94d6 323e 1bfe 3cbc 8fc2 2bbd 2723 9c3d
00000050: ac3f 0dbd 385a 4b3d d0f5 7e3e 688c 073c
00000060: a6f3 193f 2fe5 84bd fb1b 02bd 54a5 69bd
00000070: 251b 2fbd df77 40bd e6be 463d 962a 9fbd
0.36032155 0.9456137 -0.04243449 -0.10247737 -0.052816775 -0.05659621 -1.2541993 -0.048147317
-0.07182056 -1.1298456 0.5849138 -0.98081803 0.04852723 -0.042126495 0.5160132 -0.85297155
0.17464668 -0.011535193 -0.041933592 0.07623892 -0.03448455 0.049646586 0.24898458 0.008273222
0.60137403 -0.06489026 -0.031764966 -0.057042435 -0.042750496 -0.046989318 0.0485219 -0.077717945

conv4.weight f4 [32, 1, 5, 5]
00000000: 5e31 8cbd 9a07 5fbd 157e ccbd f79f 30be
00000010: d96d 02be c8eb 5abe aa33 8ebe 54de 1fbe
00000020: d642 8cbe d22f 53be 9032 e8bd c88d b8bd
00000030: 55d9 1f3d 4ac0 b8bd d918 14bb 161b f93d
00000040: d10b 543e 1834 913e 90d9 9e3e c79a 273e
00000050: 48f6 9b3e 15e9 d53e 12ce ab3e 5240 ff3e
00000060: 5e88 9a3e 249e acbb 15eb 263d 6ccb 133d
00000070: d4a9 0b3d 45fd c53c 5ae6 c3bc 6480 67bc
00000080: ca37 92bc 001d 9c39 8a25 243d 3f19 cbbd
00000090: 6fbd 45be 9f3f 8fbe 6a10 69be a6c5 e1bc
000000a0: a90e 95bd 252d 2bbe 02dc 97be e7f0 c7be
000000b0: fd9f 70be 3de7 59bc 7b39 85bd e0da 6cbe
000000c0: dc09 96be 2a71 33be 91c1 843c 7e03 73bc
000000d0: 126f 8a3c 1a14 a13d 9c49 473c 5f46 ac3d
000000e0: 99d4 a73d fdb8 be3d 3498 8abc d033 6abd
000000f0: 1361 f13c bea5 b8bd 9c5c f23d fcf1 00bd
00000100: f649 fcbd 9976 b7bd f778 28be a04c 843d
00000110: 3cb8 30be 3c81 033d 09f9 293c be2d 813d
00000120: 44d3 62be 7477 b7bd 76a0 0e3d 5c5b f9bc
00000130: 37c5 323d 4be3 403e 48d1 d2bd 4ebc 113d
00000140: dcbe a6bd 6d3b 3cbd ed58 99bd dcae 793e
00000150: f63f 083d 3fe9 b5bd f99d 053d bb47 db3d
00000160: ee8e dabd b010 babc 79ac febd cbd5 f63d
00000170: 996d fb3b f7ee df3d bbac 27bd 3d65 8abd
00000180: ae60 193e 4d99 f63d 154d 573e cf8c bc3d
00000190: 7a7a 0ebd 462b 273d fd1e 553e cd08 f3bd
000001a0: 64bb cdbe 1b68 9f3c dac3 7c3d 0274 283d
000001b0: bed5 abbd 9cb2 a9bd 762a 1abe 2849 653e
000001c0: 7e76 f1bc ce0e 7d3e 8245 36be 5c5e 153e
000001d0: 784f a4bd f232 e4bd b41d cfbd b619 88bc
000001e0: 20a1 963d 8d44 1f3d 1620 ce3d e7ba 3cbd
000001f0: 6541 513e 520a 1a3e 2619 f63b b0d7 acbd
00000200: a800 d4bd a063 d7bc da7b d8bd 176a 05bd
00000210: 21b5 07be ddb3 97bd 7d6a 8fbd ddb8 38be
00000220: 04a7 763c 0833 1fba 13da 0e3e c14d 5fbe
00000230: a92c 2abe 244d 143e 141d c4bd 2dff 993c
00000240: 202f 42be 981a 743d 4355 02bd 60af 2bbe
00000250: 6db1 5dbe 75c8 983c 6ecd ae3c aa75 8b3e
00000260: 8f3d a23e c86b e13e 3e25 5a3e 1cb6 b8bd
00000270: 5b3c 1a3e 9c95 a33e fc09 003f da7a 883e
00000280: e9b6 b4bd 1a1b 8fbd e9ee 1d3e 0478 493e
00000290: f7ad cc3d fec6 7fbe 9e8f 8ebe 3f5b d5bd
000002a0: c4fc a93d 5b30 d73b 3fb3 5bbe bf4d 52be
000002b0: 8048 efbd 4731 423d 4097 95bb fdcb 2cbe
000002c0: 643a 9dbd 3a1f 3a3d 4bec b33b 79a1 6abc
000002d0: 7f6a c3bc 425f 683d 9da2 6abd 93ca d23d
000002e0: 2a90 3dbe c07a e13d 5c3b 11be ae33 4bbe
000002f0: f0e5 2abe 542f c9bd 17ae 33be 9b08 60be
00000300: 411a 60be 884b 2d3d ed07 633d 669b 85bd
00000310: 6089 803d df0b 0c3e 6548 4abe 434d 69be
00000320: fb18 2cbe c80a d53d c11a 71be 33a1 f9bd
00000330: a0cd 2fbe 0ffa 79bb 5aa3 093e 5225 8dbd
00000340: 9682 6ebe e6f3 01be b9d9 5a3d 3497 e13d
00000350: 1772 18be 3e75 ecbd 4b87 093e 60e4 af3a
00000360: 0d29 39be 906d 053e 81d4 cdbd 7626 023e
00000370: 8899 bb3d d945 2bbe 38c0 82be a2dd ec3d
00000380: 7d4c 43be dc31 8b3e 3d93 c73e 288a 603f
00000390: 38e4 353f 5576 0b3f ad22 583e cd56 b43e
000003a0: 04f4 813f 7063 4e3f 7cd5 273f d0c8 dfbc
000003b0: eb00 a5bb 7372 db3e 27f9 a83e deb2 a83e
000003c0: 02b8 d53d 0811 013e 8eeb 353f b2fd 013f
000003d0: 7248 e33e ee74 f43d 00be 2c3e 7ca1 233f
000003e0: 1fe5 e43e e0fe bf3e 8c1d 7bbe e93f adbe
000003f0: 24a0 dabe ca3e 25be a19f 61bd a455 d2be
-0.068453535 -0.05445061 -0.09984986 -0.17248522 -0.12737216 -0.21379006 -0.27773792 -0.15612155
-0.27394742 -0.20623711 -0.11337769 -0.090114176 0.039025623 -0.09021051 -0.0022597818 0.12163369
0.20707633 0.28360057 0.31025362 0.16367637 0.30461335 0.4177939 0.33555657 0.4985376
0.30182165 -0.0052678753 0.040751535 0.03608267 0.034097508 0.02416862 -0.023913551 -0.014129732
-0.017848868 0.00029776245 0.040074863 -0.09916925 -0.19310544 -0.27978227 -0.22760168 -0.027560066
-0.07278187 -0.1671644 -0.2966004 -0.3905098 -0.2349853 -0.01329976 -0.06505104 -0.23130369
-0.29304397 -0.17523637 0.01620558 -0.014832376 0.016898666 0.07865162 0.012163546 0.0841186
0.08194847 0.093126275 -0.01691828 -0.05717832 0.029465234 -0.09015988 0.1183407 -0.031480774
-0.123187944 -0.089581676 -0.16452394 0.064599276 -0.1725778 0.03210567 0.010374316 0.06307553
-0.22150904 -0.08958331 0.034820996 -0.030439071 0.04364511 0.18836705 -0.102938235 0.035579972
-0.08141872 -0.04595511 -0.07487664 0.2438311 0.033264123 -0.08882379 0.032621358 0.10707041
-0.10671793 -0.022713035 -0.1243524 0.120524965 0.007672977 0.10934251 -0.040936213 -0.06757591
0.14978287 0.120409586 0.21025498 0.092065446 -0.03478477 0.040812753 0.20812602 -0.11866913
-0.4018203 0.019458821 0.061710216 0.04112626 -0.083903775 -0.0828602 -0.1505526 0.22391188
-0.029475447 0.24712679 -0.17799953 0.14586776 -0.0802297 -0.111425295 -0.10113087 -0.016613822
0.07354951 0.038883734 0.10064714 -0.04607668 0.20435102 0.15043 0.007510322 -0.084395766
-0.10351688 -0.026292622 -0.10570498 -0.03257188 -0.13252689 -0.07407353 -0.07002733 -0.1803927
0.015054468 -0.0006072973 0.13950376 -0.21807005 -0.16618599 0.14482552 -0.09575859 0.018798435
-0.1896329 0.059595674 -0.031819593 -0.16766119 -0.21649714 0.018650273 0.02133819 0.27238208
0.3168759 0.44027543 0.2130327 -0.090191096 0.15062086 0.3195008 0.50015235 0.26656228
-0.0882395 -0.06987591 0.15423168 0.19674689 0.09994119 -0.24978253 -0.27843946 -0.104177944
0.08300164 0.0065670437 -0.21455096 -0.2053747 -0.1168375 0.047410276 -0.0045651495 -0.1687469
-0.07677153 0.045439936 0.005490815 -0.014320725 -0.023854492 0.05673147 -0.057283986 0.10292544
-0.18512025 0.11009741 -0.141828 -0.19843933 -0.16689277 -0.0982348 -0.17546879 -0.21878283
-0.21885015 0.04230836 0.05542748 -0.065237805 0.06276202 0.13676403 -0.19754179 -0.2278338
-0.16806404 0.10402447 -0.23545362 -0.121889494 -0.17168283 -0.0038143431 0.1344122 -0.06891884
-0.23292002 -0.12690696 0.053430293 0.11015168 -0.14887272 -0.115458 0.13430516 0.0013419501
-0.18082066 0.13030076 -0.100502975 0.12709984 0.09160143 -0.16725864 -0.25537276 0.115657106
-0.19072147 0.27186477 0.3897952 0.8771081 0.7105136 0.54477435 0.21106978 0.35222474
1.0152593 0.8062048 0.65560126 -0.027317435 -0.00503551 0.42860755 0.33002588 0.32948965
0.10435487 0.12604153 0.7106255 0.50777733 0.4439121 0.11936365 0.16869354 0.6391828
0.44706056 0.37499142 -0.2452299 -0.33837822 -0.42700303 -0.16137233 -0.055083875 -0.41080964
