nn-model-1.pth (torch, 5071 bytes, 7 tensors)

conv1.weight f4 [3, 1, 5, 5]
0.020215308 0.16003068 -0.076352224 0.09013408 -0.019649306 0.06888997 -0.07718092 -0.08587032
0.042967226 0.07032397 -0.061420422 -0.022845332 0.13646601 -0.062718235 0.13043363 0.15594906
0.122560166 -0.06633632 -0.041276805 -0.06059176 0.049877957 -0.16243596 0.10634077 0.05747389
0.054526452 0.051276557 -0.014234481 -0.16626081 0.04984837 0.029441146 0.01949511 0.097085424
0.0759229 0.08368983 -0.057293706 -0.012828543 -0.15222272 0.058782976 0.07106429 -0.055358224
-0.029517729 0.06522064 -0.14546826 -0.10796426 -0.09702808 -0.026333118 -0.053835485 0.07414437
-0.06815583 0.1281363 -0.0068913633 -0.2557603 0.10665887 -0.008170241 -0.25685325 0.06772329
-0.14255153 0.11877392 -0.1686244 -0.043404605 -0.026603127 -0.12979537 -0.25445437 -0.058843143
0.06864006 0.11735081 0.11971379 -0.12187421 -0.16772208 -0.25504547 -0.23479213 -0.029405322
0.016215974 -0.10673432 0.084275074
00000000: 939a a53c 15df 233e 8e5e 9cbd 3798 b83d
00000010: 95f7 a0bc 2f16 8d3d 0811 9ebd c7dc afbd
00000020: 67fe 2f3d 0306 903d fb93 7bbd 2226 bbbc
00000030: bfbd 0b3e 6b72 80bd 6590 053e 1cb1 1f3e
00000040: d300 fb3d 56db 87bd de11 29bd 112f 78bd
00000050: d44c 4c3d 9d55 26be 31c9 d93d be69 6b3d
00000060: 2157 5f3d 5e07 523d be37 69bc 4640 2abe
00000070: ce2d 4c3d 8f2e f13c 35b4 9f3c b9d4 c63d
00000080: 777d 9b3d 9365 ab3d ceac 6abd cf2e 52bc
00000090: 46e0 1bbe 6bc6 703d 288a 913d 4ebf 62bd
000000a0: 2acf f1bc 6692 853d a2f5 14be 5e1c ddbd
000000b0: a8b6 c6bd 8db8 d7bc 9982 5cbd 01d9 973d
000000c0: 4995 8bbd 2a36 033e f2d0 e1bb 04f3 82be
000000d0: f76f da3d 79dc 05bc 4582 83be 82b2 8a3d
000000e0: 07f9 11be be3f f33d e0ab 2cbe 07c9 31bd
000000f0: cdee d9bc 14e9 04be d847 82be 8205 71bd
00000100: 2993 8c3d 9f55 f03d 812c f53d 3099 f9bd
00000110: 56bf 2bbe 5295 82be 596d 70be 6ee3 f0bc
00000120: 5dd7 843c 8697 dabd 6998 ac3d

conv1.bias f4 [3]
-13.607564 -9.020112 0.013395272
00000000: 95b8 59c1 6152 10c1 d877 5b3c

conv2.weight f4 [5, 3, 4, 4]
-0.01472346 0.0031893882 0.093596585 0.25172013 0.06829148 -0.084408246 0.07712054 0.08454588
-0.025949508 -0.15224929 0.0046934867 0.088299476 0.004546207 0.059015505 -0.03652596 0.07132141
0.05797654 0.15640365 0.14742777 0.19066933 -0.061115727 -0.04471393 0.085819885 0.015721794
-0.26490083 0.062812954 0.06790001 0.017286042 -0.0971894 -0.19760358 -0.08320681 0.08247938
0.1680781 0.049307946 -0.013698589 0.16326676 0.04344358 0.023766913 0.1376368 0.03430052
-0.024701059 -0.06629035 0.050062153 0.054431994 0.040508397 0.16714446 -0.04939308 0.037361242
0.102271125 0.03838691 0.018277809 0.0164259 -0.042857334 -0.09638903 -0.085204676 0.08466322
0.13952385 -0.0019904932 -0.12559882 -0.13953099 0.30073678 0.16034693 -0.010406732 0.105791755
0.06519596 0.023163658 -0.056264814 -0.019195136 0.0674895 -0.08795544 -0.06822421 0.14952555
-0.012315269 0.018232092 0.023969615 -0.17306243 0.05620322 0.017393695 -0.11404893 -0.029921934
0.11385335 0.15098248 -0.008686325 -0.058124363 0.1157369 0.08694792 0.042043485 0.18888251
0.12028773 0.17772411 -0.017322045 0.11595104 0.11132833 0.032705236 0.13841972 0.08221692
-0.34588376 -0.36624646 -0.30667207 -0.3543316 -0.43390122 -0.2392649 -0.4177845 -0.21661887
-0.31720442 -0.4217102 -0.15285979 -0.25040516 -0.21672069 -0.23384432 -0.26780233 -0.24639787
-0.17626567 -0.20889555 -0.30217668 -0.4058772 -0.28642315 -0.4491495 -0.2575225 -0.3713995
-0.42586434 -0.3798639 -0.4483789 -0.41397697 -0.2528532 -0.2796019 -0.45164424 -0.20192748
-0.08480421 0.07401885 -0.19823222 -0.07275853 -0.07662942 0.082280606 0.020935122 -0.06743465
-0.09360677 -0.102770604 0.0680606 -0.11168426 0.024382377 -0.17002705 0.0007517068 -0.20419928
-0.1374557 -0.11014088 -0.12696825 -0.1360725 -0.08580892 -0.16207336 -0.024635617 -0.20123467
-0.12713204 -0.19153504 -0.12084467 -0.005254102 -0.203356 0.018738665 -0.08309669 -0.069524646
-0.100561835 -0.03028809 0.0007239524 -0.15890172 -0.18736555 -0.14904821 -0.19621031 -0.09379989
-0.17110412 -0.17004867 -0.08804278 0.055020668 0.018625004 0.08292415 -0.0695736 0.06993767
-0.15183467 0.06623122 0.04256849 -0.01617594 -0.092965566 0.06709917 -0.010550261 0.060654193
-0.057522178 -0.017294675 0.020874351 -0.057214394 -0.058555264 -0.08151494 -0.021640047 0.0007599145
-0.20240854 -0.2594139 -0.15434086 -0.28256875 -0.41772956 -0.40360057 -0.3251492 -0.14228895
-0.38009402 -0.27923888 -0.35501337 -0.3092381 -0.38196045 -0.3009472 -0.14645354 -0.30055702
-0.3022343 -0.30337894 -0.36414245 -0.37234724 -0.4181975 -0.26992384 -0.19626012 -0.22547002
-0.24124315 -0.40088102 -0.39286464 -0.36855128 -0.3308125 -0.2149259 -0.3803424 -0.26957473
0.08699149 -0.08122574 -0.05489026 0.047928423 -0.13222377 0.07249431 -0.097291835 0.030389234
-0.13056082 -0.009367168 0.12877968 0.055942044 -0.0713523 0.07284583 -0.099428385 -0.11437369
00000000: ab3a 71bc 0e05 513b 91af bf3d 76e1 803e
00000010: 67dc 8b3d 3bde acbd 60f1 9d3d 6426 ad3d
00000020: 1094 d4bc 3de7 1bbe d2cb 993b 5bd6 b43d
00000030: 59f8 943b 3eba 713d 3f9c 15bd f610 923d
00000040: cf78 6d3d 4728 203e 4ef7 163e d23e 433e
00000050: 7c54 7abd f425 37bd 56c2 af3d feca 803c
00000060: 15a1 87be 14a4 803d 290f 8b3d 759b 8d3c
00000070: 3c0b c7bd 9858 4abe 5568 aabd f3ea a83d
00000080: aa1c 2c3e 21f7 493d 0c70 60bc 672f 273e
00000090: e5f1 313d d4b2 c23c a9f0 0c3e b47e 0c3d
000000a0: e059 cabc 3cc3 87bd f90d 4d3d 15f4 5e3d
000000b0: 22ec 253d eb27 2b3e 6650 4abd 1a08 193d
000000c0: 8673 d13d 983b 1d3d 58bb 953c 9c8f 863c
000000d0: 2c8b 2fbd 9d67 c5bd ca7f aebd e963 ad3d
000000e0: 57df 0e3e ef72 02bb fa9c 00be 36e1 0ebe
000000f0: 2cfa 993e fc31 243e ff80 2abc 59a9 d83d
00000100: 7685 853d b6c1 bd3c ef75 66bd 1e3f 9dbc
00000110: ef37 8a3d fb21 b4bd 22b9 8bbd 3a1d 193e
00000120: fbc5 49bc 785b 953c ed5b c43c 4737 31be
00000130: 5935 663d 397d 8e3c 7c92 e9bd d81e f5bc
00000140: f22b e93d 279b 1a3e 1651 0ebc d013 6ebd
00000150: 7807 ed3d c011 b23d ca35 2c3d 6b6a 413e
00000160: 6a59 f63d 4ffd 353e f6e6 8dbc bd77 ed3d
00000170: 1c00 e43d edf5 053d e6bd 0d3e 5861 a83d
00000180: ad17 b1be a884 bbbe 1f04 9dbe f46a b5be
00000190: 4d28 debe dc01 75be dae7 d5be 56d1 5dbe
000001a0: 9e68 a2be 66ea d7be 4787 1cbe 1b35 80be
000001b0: 07ec 5dbe e374 6fbe 631d 89be b94f 7cbe
000001c0: fd7e 34be b7e8 55be e7b6 9abe 23cf cfbe
000001d0: 0ea6 92be ecf6 e5be fdd9 83be 1328 bebe
000001e0: e40a dabe 857d c2be eb91 e5be caf4 d3be
000001f0: fa75 81be fb27 8fbe ea3d e7be 14c6 4ebe
00000200: d4ad adbd 3297 973d 63fd 4abe 6d02 95bd
00000210: e3ef 9cbd bc82 a83d 2280 ab3c 2e1b 8abd
00000220: e8b4 bfbd 6579 d2bd 5b63 8b3d b8ba e4bd
00000230: 8dbd c73c 921b 2ebe 300e 453a 9e19 51be
00000240: 30c1 0cbe 8b91 e1bd f703 02be 9756 0bbe
00000250: 96bc afbd 8ff6 25be a2d0 c9bc 7610 4ebe
00000260: e72e 02be c321 44be 697d f7bd 9a2a acbb
00000270: 8e3c 50be d481 993c 992e aabd f062 8ebd
00000280: 5df3 cdbd bb1e f8bc a0c7 3d3a 22b7 22be
00000290: c1dc 3fbe 18a0 18be 5beb 48be 281a c0bd
000002a0: eb35 2fbe 3d21 2ebe c64f b4bd 5a5d 613d
000002b0: 7793 983c 23d4 a93d 9b7c 8ebd 7b3b 8f3d
000002c0: 8c7a 1bbe 3ca4 873d 4c5c 2e3d 6883 84bc
000002d0: bb64 bebd 4a6b 893d 00db 2cbc 8870 783d
000002e0: 609c 6bbd 90ad 8dbc b000 ab3c a459 6abd
000002f0: a5d7 6fbd 4ef1 a6bd 7846 b1bc 0035 473a
00000300: 2f44 4fbe e6d1 84be 880b 1ebe daac 90be
00000310: a6e0 d5be bca4 cebe f579 a6be 32b4 11be
00000320: af9b c2be 66f8 8ebe 50c4 b5be 7554 9ebe
00000330: 5290 c3be c015 9abe ebf7 15be 9ce2 99be
00000340: 74be 9abe 7c54 9bbe e170 babe 4ca4 bebe
00000350: fc1d d6be 7533 8abe 6af8 48be 9de1 66be
00000360: 7208 77be 4740 cdbe 8e25 c9be c1b2 bcbe
00000370: 4260 a9be 8915 5cbe 3dbc c2be b305 8abe
00000380: 9828 b23d ae59 a6bd 9cd4 60bd 9850 443d
00000390: ab65 07be e677 943d f140 c7bd d8f2 f83c
000003a0: bcb1 05be c078 19bc d2de 033e 7c23 653d
000003b0: 2821 92bd 3230 953d 1ca1 cbbd c13c eabd

conv2.bias f4 [5]
-11.810171 -12.451152 -0.3730342 -0.18616012 -0.22929779
00000000: 76f6 3cc1 eb37 47c1 57fe bebe c2a0 3ebe
00000010: 0acd 6abe

conv3.weight f4 [3, 5, 4, 4]
0.051463734 0.25411385 0.3943471 0.75205386 -0.07184334 0.15826607 0.41262364 0.562421
-0.37831986 -0.04581926 0.3146359 0.30782652 -0.5237389 -0.13283956 0.18693842 0.254066
0.19275337 -0.117748536 -0.03370611 0.27074632 0.24454156 -0.034521013 -0.06144101 0.15700914
0.3567771 -0.0121401 -0.111543834 0.04447912 0.33120245 0.14934805 0.0973105 0.07289142
-0.31842905 -0.1671457 -0.3887065 -0.3800384 -0.17974795 -0.25219366 -0.32607472 -0.24766354
-0.20720662 -0.30096513 -0.1322404 -0.05540813 -0.19335221 -0.16344611 -0.20980954 -0.13570216
-0.0127156805 0.11210709 0.06420584 0.0068822536 0.13682465 -0.03846671 0.1462628 0.053431414
0.006469736 0.0135485055 0.061154835 0.014229254 0.012181869 0.10526223 0.11803609 -0.019904863
-0.33718714 0.25824562 0.31683072 0.10368408 -0.22867401 0.31645122 0.18503767 -0.05735416
0.05877465 -0.045067288 0.08211383 -0.076578684 -0.20735154 -0.33163625 -0.3446905 -0.074438885
-0.08304465 -0.031954415 0.16067627 0.39950955 -0.12773271 -0.122106545 0.066364184 0.3252879
-0.11995916 -0.1422692 -0.053946905 0.25326294 0.00083967944 -0.26753235 -0.172498 0.097114936
0.36254525 0.1548184 0.1411359 0.06200462 0.4023088 0.3628795 0.12848753 -0.025395693
0.4390339 0.37632716 0.17982215 0.09223547 0.6250517 0.48729882 0.31645995 0.07265229
-0.11180242 -0.27846473 -0.28191575 -0.29780814 -0.39735523 -0.28056708 -0.18381695 -0.31409794
-0.21847123 -0.32999325 -0.3956803 -0.28211647 -0.16106728 -0.22192696 -0.2655111 -0.25088352
-0.02929331 0.055212513 -0.010954515 0.108101115 -0.037643485 0.16263238 0.07507181 0.08820704
0.13219732 -0.0035663855 0.02912652 0.16026168 0.14349273 -0.0117295375 -0.028687231 -0.011163907
0.26476425 0.1589107 -0.21551071 0.110544905 0.28917742 0.3689631 -0.31929687 -0.06110754
0.0012664795 -0.0044646263 0.0292736 -0.06959128 -0.21459766 -0.26086333 -0.36005107 -0.021723516
-0.49355206 -0.10190704 -0.16994563 0.0129796555 -0.4830499 -0.38877925 -0.24369982 -0.111863226
-0.17039768 -0.4656254 -0.1163954 -0.11170675 -0.1668551 -0.22809957 -0.26589304 -0.1037859
-0.23787926 -0.5391935 -0.53407043 -0.51104116 -0.22241074 -0.060730584 -0.5103905 -0.45895997
-0.51673716 -0.5599728 -0.4621476 -0.3612596 -0.43022817 -0.503373 -0.4808437 -0.45252928
0.07658024 -0.029582411 -0.05722814 0.04421018 -0.0017816573 -0.049600553 0.000115700066 0.07472785
0.10010876 -0.09334937 0.0107580945 -0.10513296 -0.06818031 0.057701126 -0.04776182 0.046589315
0.033231094 -0.076177284 0.096227944 0.035645053 0.03940451 -0.071530506 -0.082501195 0.08770113
-0.024328418 -0.002146192 0.012129441 0.021744266 -0.01901482 0.017173052 -0.029166535 0.05950509
-0.07978612 -0.046117075 -0.04125373 0.09609038 -0.024232112 -0.012915567 0.061374053 0.098743156
-0.10819992 -0.009521432 -0.033495575 0.023388073 0.07201624 0.081936225 0.047285125 0.079925925
00000000: a3cb 523d 361b 823e dde7 c93e 9a86 403f
00000010: 9a22 93bd 8010 223e 6843 d33e d3fa 0f3f
00000020: 24b3 c1be faac 3bbd f517 a13e 709b 9d3e
00000030: c113 06bf 1807 08be c96c 3f3e f014 823e
00000040: 2461 453e 2526 f1bd 6b0f 0abd 439f 8a3e
00000050: 1a69 7a3e e865 0dbd 92a9 7bbd 01c7 203e
00000060: 7dab b63e 45e7 46bc 1871 e4bd bd2f 363d
00000070: 5e93 a93e b2ee 183e ba4a c73d 1948 953d
00000080: 2209 a3be 3e28 2bbe 8a04 c7be 6594 c2be
00000090: d90f 38be 871f 81be 44f3 a6be 839b 7dbe
000000a0: f92d 54be 1a18 9abe 076a 07be a3f3 62bd
000000b0: 1ffe 45be 6b5e 27be 50d8 56be 82f5 0abe
000000c0: 6e55 50bc 6798 e53d 5a7e 833d 8784 e13b
000000d0: c31b 0c3e 458f 1dbd eac5 153e e6da 5a3d
000000e0: 1400 d43b 8dfa 5d3c 7e7d 7a3d d121 693c
000000f0: 7696 473c b993 d73d e8bc f13d 860f a3bc
00000100: cba3 acbe c538 843e a337 a23e 5258 d43d
00000110: 8529 6abe e505 a23e 847a 3d3e 32ec 6abd
00000120: b0bd 703d 7a98 38bd 4c2b a83d 49d5 9cbd
00000130: f653 54be 3acc a9be 467b b0be 6a73 98bd
00000140: 5013 aabd a2e2 02bd 5288 243e 848c cc3e
00000150: 5dcc 02be ff12 fabd f2e9 873d 238c a63e
00000160: 26ad f5bd 04af 11be 6ef7 5cbd aeab 813e
00000170: ef1d 5c3a 00fa 88be 51a3 30be 32e4 c63d
00000180: 889f b93e b788 1e3e ee85 103e 8ef8 7d3d
00000190: 6bfb cd3e 58cb b93e 3c92 033e a10a d0bc
000001a0: 0dc9 e03e f4ad c03e 4c23 383e f3e5 bc3d
000001b0: 6303 203f 3b7f f93e 0a07 a23e b9ca 943d
000001c0: abf8 e4bd ee92 8ebe 4357 90be 4f7a 98be
000001d0: 2572 cbbe 7da6 8fbe 833a 3cbe 72d1 a0be
000001e0: ecb6 5fbe e0f4 a8be 9c96 cabe 9271 90be
000001f0: d2ee 24be d240 63be 12f1 87be ce73 80be
00000200: 86f8 efbc 8426 623d 917a 33bc 1e64 dd3d
00000210: 0e30 1abd 1a89 263e 40bf 993d e5a5 b43d
00000220: bc5e 073e 05ba 69bb bd9a ee3c a31b 243e
00000230: c2ef 123e 3f2d 40bc 7c01 ebbc d2e8 36bc
00000240: 2e8f 873e 7db9 223e d7ae 5cbe 5e65 e23d
00000250: 100f 943e bbe8 bc3e e17a a3be e64b 7abd
00000260: 0000 a63a 004c 92bb 30cf ef3c df85 8ebd
00000270: 7dbf 5bbe e18f 85be 9d58 b8be 84f5 b1bc
00000280: dbb2 fcbe a3b4 d0bd 3a06 2ebe 9fa8 543c
00000290: 5152 f7be 130e c7be 728c 79be 8c18 e5bd
000002a0: bb7c 2ebe 7466 eebe b660 eebd 82c6 e4bd
000002b0: 10dc 2abe ef92 69be 2223 88be b48d d4bd
000002c0: 9f96 73be 9608 0abf d7b8 08bf 98d3 02bf
000002d0: a4bf 63be a2c0 78bd f4a8 02bf cdfc eabe
000002e0: e348 04bf 615a 0fbf 9c9e ecbe 05f7 b8be
000002f0: de46 dcbe 0edd 00bf 2531 f6be ebb1 e7be
00000300: 1ad6 9c3d d056 f2bc 0e68 6abd bc15 353d
00000310: 8086 e9ba f329 4bbd 00a4 f238 ea0a 993d
00000320: d205 cd3d f42d bfbd b842 303c f34f d7bd
00000330: 1ea2 8bbd 0458 6c3d e6a1 43bd 70d4 3e3d
00000340: 541d 083d d602 9cbd 2813 c53d 8c00 123d
00000350: a066 213d 967e 92bd 63f6 a8bd a69c b33d
00000360: 644c c7bc 20a7 0cbb 90ba 463c 0821 b23c
00000370: f8c4 9bbc 80ae 8c3c a8ee eebc 9cbb 733d
00000380: e866 a3bd 42e5 3cbd acf9 28bd 08cb c43d
00000390: 6c82 c6bc d09b 53bc 5c63 7b3d da39 ca3d
000003a0: eb97 ddbd c8ff 1bbc a832 09bd 5898 bf3c
000003b0: 407d 933d 2ece a73d 0cae 413d 34b0 a33d

conv3.bias f4 [3]
-12.79279 -10.280823 -0.43149853
00000000: 45af 4cc1 407e 24c1 60ed dcbe

conv4.weight f4 [3, 1, 5, 5]
-0.014018275 0.040796883 0.23296297 0.9231908 0.7699626 -0.18934198 -0.15185878 0.27291745
1.1641833 0.94403255 -0.362787 -0.44156033 0.009920092 0.473563 0.3811216 -0.5639832
-0.78447473 -0.24993809 0.3490957 0.41041258 -0.378137 -0.5420117 -0.21811278 0.17257571
0.25983286 0.2636472 0.18788235 -0.21691896 -0.57272977 -0.4104004 0.41171208 0.35140768
-0.2579406 -0.816316 -0.59076285 0.3612618 0.4337376 -0.011135302 -0.4432482 -0.3525893
0.856438 1.0563611 0.24507694 -0.13447405 -0.16876382 0.69139826 0.8361441 0.21694987
0.055480745 -0.0037117878 0.24360776 0.098505095 -0.047758214 0.13217326 0.168538 -0.08720986
-0.10503811 0.20998356 -0.20128095 0.22767313 -0.063268684 0.21877068 0.1453262 0.14622821
0.22063953 0.14366068 0.24687457 0.0937038 -0.012760796 -0.0766504 0.12917186 -0.10442874
0.19060063 0.09079276 0.05890704
00000000: e8ac 65bc a21a 273d d88d 6e3e 3b56 6c3f
00000010: 451c 453f dde2 41be de80 1bbe d6bb 8b3e
00000020: f503 953f 1eac 713f 38bf b9be 3214 e2be
00000030: e287 223c d976 f23e 5f22 c33e 3461 10bf
00000040: 56d3 48bf c5ef 7fbe acbc b23e 9921 d23e
00000050: 2c9b c1be 47c1 0abf f558 5fbe b0b7 303e
00000060: d008 853e c4fc 863e 3b64 403e 0120 5ebe
00000070: 6b9e 12bf 0020 d2be edcb d23e b5eb b33e
00000080: ca10 84be 16fa 50bf 3c3c 17bf 4ff7 b83e
00000090: db12 de3e d770 36bc 6ef1 e2be 9686 b4be
000000a0: 853f 5b3f d736 873f 73f5 7a3e 91b3 09be
000000b0: 6cd0 2cbe 7aff 303f 8a0d 563f 1b28 5e3e
000000c0: c73f 633d 7741 73bb 5074 793e 0abd c93d
000000d0: 1e9e 43bd 6d58 073e 3a95 2c3e 159b b2bd
000000e0: 381e d7bd ee05 573e 981c 4ebe 2523 693e
000000f0: 0393 81bd 6c05 603e 64d0 143e d9bc 153e
00000100: 54ef 613e c91b 133e b0cc 7c3e c7e7 bf3d
00000110: a812 51bc e3fa 9cbd a145 043e bcde d5bd
00000120: d02c 433e 8ef1 b93d 8248 713d
